model.pth (torch, 260215 bytes, 26 tensors)

block_1.1.weight f4 [8, 1, 1, 64]
0.10430381 0.004089108 -0.07243894 0.040122 -0.065820076 -0.06919759 -0.012271246 0.12919831
-0.051598597 -0.11505864 0.027753443 -0.0030876496 -0.040017843 -0.07884116 0.01934818 0.005487333
-0.043531552 0.025642246 0.018765507 -0.061875604 -0.093314916 0.10209985 -0.051331628 -0.065843575
0.076051764 0.005798551 -0.08745293 0.12772833 0.0076116165 -0.09206178 0.052218586 0.09277659
-0.05698903 0.125028 0.011375509 -0.0885992 -0.11166152 0.0028115117 0.10854141 0.06740532
-0.0012396817 0.088213615 -0.055625983 -0.072096765 -0.09621943 -0.012403074 -0.016853565 -0.020783793
0.039734446 -0.05542679 -0.018075157 0.0613906 0.07649975 -0.033926748 -0.03114562 0.009372574
-0.0901062 -0.10481052 -0.04886775 0.07812718 -0.019404098 -0.07413136 0.08819641 0.051977187
-0.09827689 0.07572372 -0.0013559283 0.09890588 0.04955957 0.004392753 -0.062650524 0.055340137
0.059459947 0.06906755 0.09423173 0.0116424 -0.07019041 0.12881726 0.028410677 0.05573169
-0.04244826 -0.025209947 0.04202117 0.05077713 -0.02191739 0.116358906 0.030487482 -0.075389564
0.05570473 -0.065760545 0.002566331 -0.085949354 -0.09072697 -0.080092855 -0.041206557 0.08201718
0.022621222 4.8560425e-05 0.0486342 -0.020568475 0.11252528 -0.017274696 0.06519098 0.0024248264
0.02926259 -0.015081103 0.06823295 -0.090529025 0.022966212 0.050309587 0.07375053 -0.011846465
-0.02283109 0.041793592 -0.115817495 -0.039929338 0.10194178 -0.011376256 0.04001951 -0.08291973
-0.08919156 0.019901283 0.0020658444 -0.055839267 -0.0664561 -0.10572417 -0.11553964 -0.117209405
0.05994665 -0.037359416 0.038693704 0.016089043 0.114504494 -0.09486177 0.048240945 0.016966777
-0.09725432 0.011172354 -0.11526876 -0.05603857 -0.08408434 0.0028374614 0.069322184 0.10289206
0.12651592 0.017558211 0.08765621 0.08378901 0.019908873 0.028691737 -0.03146817 0.09613023
-0.07988836 0.03344584 0.07952548 -0.100514255 -0.02005751 -0.047538962 -0.09315916 -0.114415646
0.031337436 -0.08690053 0.094965816 0.012374107 -0.12390333 -0.08304318 0.019340869 -0.025072671
-0.12437477 0.025846235 -0.00088235165 0.0954384 -0.027758967 -0.108082004 -0.042887934 -0.04795374
-0.029518899 0.034180716 -0.10410446 -0.078451276 0.09963917 -0.044132724 -0.053892944 0.014465641
-0.058966823 0.050439563 -0.10508526 -0.06647945 0.0130566135 -0.121887565 0.05122639 0.11268023
-0.000661054 -0.059965353 0.061806805 0.008980027 -0.112697035 0.11014953 -0.08026728 0.043668244
-0.0060201744 0.08650574 -0.00092917366 0.014536019 -0.009719293 0.027063351 -0.06968183 -0.04409203
-0.08172588 0.027297819 -0.05709734 -0.04518782 0.006005995 0.08493661 -0.007813224 0.09487614
0.010835958 0.093092754 0.08337901 -0.013593456 -0.011277663 -0.10397891 -0.027171964 -0.11761935
0.04470782 0.07230714 0.019614382 -0.01250289 -0.10466652 0.110249706 0.116043694 -0.06900464
-0.007329592 0.034512304 0.029911164 -0.122825556 -0.012931924 0.10771491 0.05560613 -0.09276551
-0.09587672 0.022592407 0.12208702 -0.09074525 -0.041560657 0.112206355 -0.025627784 0.06196512
0.056666594 -0.021101842 0.017108861 -0.051779967 0.10945918 -0.08652667 -0.105782695 0.08756654
00000000: 3c9d d53d edfd 853b de5a 94bd f756 243d
00000010: adcc 86bd 77b7 8dbd 560d 49bc 904c 043e
00000020: 0d59 53bd dda3 ebbd 305b e33c 2a5a 4abb
00000030: c0e9 23bd 7977 a1bd 1380 9e3c 16cf b33b
00000040: 244e 32bd b00f d23c 1fba 993c 4671 7dbd
00000050: e41b bfbd ba19 d13d 1d41 52bd ffd8 86bd
00000060: 07c1 9b3d c501 be3b 861a b3bd 37cb 023e
00000070: de6a f93b e38a bcbd 28e3 553d a701 be3d
00000080: 546d 69bd 5707 003e 5860 3a3c 7f73 b5bd
00000090: ccae e4bd 5741 383b f54a de3d cd0b 8a3d
000000a0: d17c a2ba 57a9 b43d 12d8 63bd 78a7 93bd
000000b0: b10e c5bd 4336 4bbc 7d10 8abc c642 aabc
000000c0: 96c0 223d 3407 63bd 5a12 94bc b674 7b3d
000000d0: e7ab 9c3d c6f6 0abd 1925 ffbc 6d8f 193c
000000e0: 9989 b8bd e6a6 d6bd 8d29 48bd 2501 a03d
000000f0: 58f5 9ebc 2fd2 97bd 52a0 b43d 08e6 543d
00000100: 6545 c9bd 0a15 9b3d 67b9 b1ba 2a8f ca3d
00000110: fafe 4a3d 15f1 8f3b eb4e 80bd 57ac 623d
00000120: 468c 733d 4a73 8d3d 91fc c03d c4bf 3e3c
00000130: fdbf 8fbd ace8 033e 82bd e83c ea46 643d
00000140: 3ade 2dbd 1785 cebc 641e 2c3d aefb 4f3d
00000150: 198c b3bc 944d ee3d e2c0 f93c d865 9abd
00000160: a52a 643d 77ad 86bd e42f 283b 3706 b0bd
00000170: 10cf b9bd b907 a4bd 35c8 28bd a0f8 a73d
00000180: 2450 b93c 5cad 4b38 a834 473d 387f a8bc
00000190: a773 e63d aa83 8dbc d982 853d d6e9 1e3b
000001a0: 19b8 ef3c bb16 77bc b8bd 8b3d 4867 b9bd
000001b0: a323 bc3c 6d11 4e3d 850a 973d ad17 42bc
000001c0: 4408 bbbc c22f 2b3d b931 edbd f28c 23bd
000001d0: dac6 d03d 7a63 3abc 7feb 233d d2d1 a9bd
000001e0: 11aa b6bd 0408 a33c 1e63 073b b7b7 64bd
000001f0: 231a 88bd ea85 d8bd 0ca0 ecbd 7c0b f0bd
00000200: 9e8a 753d 3006 19bd 4a7d 1e3d 2bcd 833c
00000210: 5581 ea3d e346 c2bd 4c98 453d e9fd 8a3c
00000220: 462d c7bd 400c 373c 0712 ecbd b388 65bd
00000230: 6934 acbd b4f4 393b caf8 8d3d 13b9 d23d
00000240: 648d 013e 3dd6 8f3c 1985 b33d 9399 ab3d
00000250: ef17 a33c ef0a eb3c c5e4 00bd eddf c43d
00000260: 829c a3bd 81fe 083d 41de a23d 6bda cdbd
00000270: a64f a4bc 37b8 42bd 3bca bebd c052 eabd
00000280: af5b 003d e8f8 b1bd 707d c23d c4bc 4a3c
00000290: 07c1 fdbd 8b12 aabd be70 9e3c 3465 cdbc
000002a0: 33b8 febd 7cbb d33c 9e4d 67ba 3575 c33d
000002b0: c666 e3bc 195a ddbd 42ab 2fbd 246b 44bd
000002c0: 9ed1 f1bc 1401 0c3d b834 d5bd 10ab a0bd
000002d0: 9f0f cc3d 84c4 34bd d9be 5cbd 4c01 6d3c
000002e0: 3287 71bd b799 4e3d f136 d7bd 6126 88bd
000002f0: 68eb 553c 30a0 f9bd c3d2 513d e4c4 e63d
00000300: 954a 2dba 3b9e 75bd 2229 7d3d f720 133c
00000310: b4cd e6bd 1496 e13d 2c63 a4bd 79dd 323d
00000320: e244 c5bb ec29 b13d ca93 73ba 7c28 6e3c
00000330: ab3d 1fbc f6b3 dd3c 59b5 8ebd d899 34bd
00000340: e65f a7bd ad9f df3c e6de 69bd dd16 39bd
00000350: f0cd c43b 3ff3 ad3d 0903 00bc 6c4e c23d
00000360: 4d89 313c 6aa7 be3d 9dc2 aa3d 16b7 5ebc
00000370: f2c5 38bc e5f2 d4bd bd97 debc 6ae2 f0bd
00000380: 8c1f 373d c415 943d 57ae a03c ecd8 4cbc
00000390: 675b d6bd 99ca e13d 51a8 ed3d 4e52 8dbd
000003a0: 132d f0bb c65c 0d3d 4208 f53c f78b fbbd
000003b0: 6ce0 53bc a299 dc3d 41c3 633d d8fb bdbd
000003c0: 045b c4bd b613 b93c c208 fa3d a5d8 b9bd
000003d0: 823b 2abd 72cc e53d 5cf1 d1bc 23cf 7d3d
000003e0: 3b1b 683d c5dd acbc e227 8c3c 3b17 54bd
000003f0: 222c e03d e534 b1bd 99a4 d8bd 1656 b33d

block_1.2.weight f4 [8]
0.988868 0.99710906 0.99896234 0.99725956 0.9967223 0.9874616 0.99186087 0.9923969
00000000: 7426 7d3f 8a42 7f3f ffbb 7f3f 674c 7f3f
00000010: 3129 7f3f 49ca 7c3f 98ea 7d3f b90d 7e3f

block_1.2.bias f4 [8]
-0.024244586 -0.022186056 -0.024484804 0.024501637 0.024464631 -0.022714965 -0.022583114 0.0032263652
00000000: 959c c6bc 88bf b5bc 5b94 c8bc a8b7 c83c
00000010: 0d6a c83c bc14 babc 3900 b9bc 6d71 533b

block_1.2.running_mean f4 [8]
3.3749188e-07 -1.8542643e-07 3.870997e-07 -1.3549597e-07 -7.273173e-08 3.177595e-07 -1.8157786e-08 5.0076004e-08
00000000: 8830 b534 a119 47b4 94d2 cf34 d97c 11b4
00000010: b130 9cb3 8898 aa34 65f9 9bb2 2613 5733

block_1.2.running_var f4 [8]
0.034337487 0.03433894 0.03433918 0.034337144 0.0343377 0.03433736 0.0343382 0.034337737
00000000: 77a5 0c3d fda6 0c3d 3da7 0c3d 1ba5 0c3d
00000010: b0a5 0c3d 55a5 0c3d 36a6 0c3d baa5 0c3d

block_2.0.weight f4 [32, 8, 1, 64]
0.00497352 -0.03725508 0.015788253 0.03989491 0.02194832 0.00013180329 -0.0148984445 0.03145559
-0.008858864 0.02930808 0.023483887 0.041372456 0.0017214201 0.023229782 -0.04085542 -0.01461218
-0.045398515 0.0073876474 -0.01874025 -0.017862156 0.028271345 0.012392741 -0.04527428 0.009035681
-0.034917522 0.017451048 0.00030213007 -0.018044122 0.02023637 -0.036967978 0.0077143274 0.03154332
-0.047441732 -0.015362787 -0.0062038493 -0.024262091 0.004632702 0.025837013 0.028576998 0.040091045
0.032442465 0.04958026 -0.02215145 0.03831919 0.036460344 0.042816844 -0.03184482 0.0038921214
0.041605834 0.023082642 0.03628535 -0.02955647 -0.023809507 -0.0010515101 -0.02838472 0.040048186
0.035726264 0.022868503 -0.008455713 -0.018503593 -0.031397596 0.0080915475 0.0024669634 0.011687076
-0.0031909384 0.018895263 -0.0010083957 0.024961742 0.039499477 -0.0015260185 -0.03478251 -0.042715136
-0.04502849 0.02986278 -0.004128739 0.015193893 0.008833736 0.02816709 -0.026674516 -0.010570987
-0.022305505 -0.031998385 -0.030470967 0.024471844 0.028155388 0.028264593 0.02155349 0.021552779
0.037048817 0.02546826 0.017630447 -0.02220233 -0.0017418632 0.030759996 -0.00048276456 0.03871378
0.0015435722 0.018248186 0.02327942 -0.007785678 0.012880673 0.006304922 0.017948832 0.025187958
-0.037207633 0.024229083 0.03896972 -0.022107435 0.037494857 -0.0074806535 0.048336286 0.016584368
-0.028404094 0.022626527 0.020781782 -0.0060229707 -0.018366668 0.03457859 -0.0056996215 -0.0010464126
0.03624859 -0.033491608 -0.026617045 0.03832886 0.02299575 -0.0031897277 0.0026917525 -0.03228932
0.009279224 -0.023322264 -0.029235493 -0.048487816 0.010602137 -0.04766744 -0.012734838 0.004747957
-0.0029708284 0.032805756 0.0359664 0.03275133 -0.027899304 -0.021809418 -0.025162257 0.02542386
-0.042484708 -0.004692979 0.026123937 0.0346307 -0.03679658 -0.008496156 -0.006218262 0.016240057
0.014423789 -0.026172902 -0.013583278 0.047237657 0.04773877 -0.0022848765 0.015290241 -0.025691153
0.019697696 0.026117181 0.02601518 -0.014803387 -0.0029314756 0.006460727 -0.020712448 0.026198315
-0.008126415 0.015782572 -0.031161636 0.003169863 0.022701025 0.026490135 -0.023011975 0.037667677
0.049252678 0.0010270078 0.01889236 -0.018084038 0.016731381 0.0462056 0.0039688824 0.017150225
0.041216653 -0.021670239 0.040292908 0.050882563 -0.02626085 0.044994235 0.0034883367 0.039144784
-0.002771262 -0.0046958313 0.03541644 0.025354818 -0.005657667 0.013836083 -0.026887827 0.005510459
0.010106856 -0.006566822 0.03618962 -0.0011439112 -0.0060579786 0.038264915 -0.0038215865 -0.012798655
-0.013648635 0.021266455 -0.027695185 0.043770697 -0.0012637975 0.030450203 -0.024415247 0.03724804
0.01122956 -0.016591152 -0.011364228 -0.03152273 0.02721159 0.019382419 0.048287217 -0.006170355
-0.029012235 0.015559112 -0.01648979 -0.035203308 0.004048 -0.023387784 -0.03421854 -0.0015495003
-0.026338845 -0.049742043 -0.03245633 -0.030457953 0.028157594 -0.029984308 -0.04346856 -0.05266025
0.023877306 0.009552618 0.008817385 -0.04837208 -0.014673859 0.0041170637 -0.024739059 -0.026442662
0.030734038 -0.045814276 -6.0349936e-05 0.013445603 0.010262517 -0.03211804 -0.0078023085 -0.021626115
00000000: e9f8 a23b c898 18bd 5e56 813c d868 233d
00000010: f7cc b33c ad34 0a39 9b18 74bc 94d7 003d
00000020: c524 11bc 8017 f03c 4861 c03c 2a76 293d
00000030: 46a1 e13a 624c be3c 0358 27bd ed67 6fbc
00000040: cbf3 39bd 1414 f23b 2785 99bc a853 92bc
00000050: 4f99 e73c ec0a 4b3c 8671 39bd 650a 143c
00000060: ad05 0fbd 80f5 8e3c 3667 9e39 44d1 93bc
00000070: bec6 a53c bc6b 17bd 78c8 fc3b 9133 013d
00000080: 4352 42bd 33b4 7bbc a949 cbbb 4bc1 c6bc
00000090: eccd 973b 25a8 d33c 4f1a ea3c 8236 243d
000000a0: 64e2 043d ac14 4b3d f576 b5bc 95f4 1c3d
000000b0: 7157 153d b760 2f3d b76f 02bd f612 7f3b
000000c0: e16a 2a3d cf17 bd3c f29f 143d 6920 f2bc
000000d0: 280c c3bc d3d2 89ba 1387 e8bc 9109 243d
000000e0: b455 123d ba56 bb3c d589 0abc d994 97bc
000000f0: c49a 00bd 6992 043c c7ac 213b 267b 3f3c
00000100: 101f 51bb 3dca 9a3c 252c 84ba 917c cc3c
00000110: 34ca 213d af04 c8ba 1b78 0ebd 11f6 2ebd
00000120: cb6f 38bd caa2 f43c 5f4a 87bb ceef 783c
00000130: 60bb 103c abbe e63c 8484 dabc ef31 2dbc
00000140: 09ba b6bc bd10 03bd 409e f9bc 2d79 c83c
00000150: 21a6 e63c 268b e73c f290 b03c 748f b03c
00000160: 80c0 173d d0a2 d03c ba6d 903c a9e1 b5bc
00000170: 3b4f e4ba 63fc fb3c 901b fdb9 5792 1e3d
00000180: b051 ca3a 387d 953c 7bb4 be3c 001f ffbb
00000190: 7509 533c 8599 ce3b 6e09 933c fa56 ce3c
000001a0: 0867 18bd 127c c63c b79e 1f3d a71a b5bc
000001b0: 3594 193d 4520 f5bb 45fc 453d f1db 873c
000001c0: b4af e8bc 445b b93c 8e3e aa3c 575c c5bb
000001d0: b275 96bc 48a2 0d3d e4c3 babb c827 89ba
000001e0: 6779 143d 7f2e 09bd fd0b dabc b9fe 1c3d
000001f0: 9561 bc3c c00a 51bb 1d68 303b ce41 04bd
00000200: e307 183c 550e bfbc 467f efbc 299b 46bd
00000210: 96b4 2d3c ef3e 43bd c8a5 50bc c094 9b3b
00000220: 3bb2 42bb 545f 063d 8151 133d 4226 063d
00000230: 158d e4bc aaa9 b2bc 1421 cebc b345 d03c
00000240: 7204 2ebd 90c7 99bb de01 d63c ecd8 0d3d
00000250: 03b8 16bd 7633 0bbc 90c2 cbbb de09 853c
00000260: c251 6c3c 8e68 d6bc 668c 5ebc 467c 413d
00000270: ba89 433d debd 15bb eb83 7a3c 4176 d2bc
00000280: 105d a13c b3f3 d53c c91d d53c e889 72bc
00000290: 001e 40bb 82b4 d33b 27ad a9bc d99d d63c
000002a0: a824 05bc 744a 813c b046 ffbc 7abd 4f3b
000002b0: 80f7 b93c d701 d93c 9c83 bcbc 6c49 1a3d
000002c0: 2dbd 493d aa9c 863a 27c4 9a3c fa24 94bc
000002d0: 4010 893c 1542 3d3d 660d 823b a17e 8c3c
000002e0: cbd2 283d c985 b1bc 2d0a 253d 3c6a 503d
000002f0: fe20 d7bc e04b 383d 949c 643b 4856 203d
00000300: 109e 35bb 7ddf 99bb d410 113d e8b4 cf3c
00000310: f363 b9bb bdb0 623c dc43 dcbc 1591 b43b
00000320: 3a97 253c 7f2e d7bb 913b 143d 4aef 95ba
00000330: 0282 c6bb acbb 1c3d 9573 7abb 73b1 51bc
00000340: 869e 5fbc fd36 ae3c 03e1 e2bc e748 333d
00000350: 02a6 a5ba b472 f93c 7c02 c8bc 6791 183d
00000360: 30fc 373c 2bea 87bc 0731 3abc fa1d 01bd
00000370: d7ea de3c e1c7 9e3c d1c8 453d b030 cabb
00000380: 11ab edbc a5eb 7e3c 9915 87bc 5831 10bd
00000390: 16a5 843b bd97 bfbc bd28 0cbd 9a18 cbba
000003a0: 90c4 d7bc 50be 4bbd eef0 04bd f582 f9bc
000003b0: c1aa e63c a7a1 f5bc 170c 32bd 46b2 57bd
000003c0: 579a c33c 9582 1c3c cb76 103c cd21 46bd
000003d0: a06a 70bc 6fe8 863b 91a9 cabc 489e d8bc
000003e0: f3c5 fb3c c0a7 3bbd 4020 7db8 f24a 5c3c
000003f0: 1e24 283c 358e 03bd 82aa ffbb 4029 b1bc

block_2.1.weight f4 [32]
1.0074362 0.9998 1.0146807 1.0079485 1.0038916 0.99236315 0.99210197 1.0017918
1.0011274 0.9951834 1.0032265 1.0026513 0.99760133 0.9952419 1.0125772 1.0009993
1.014555 0.9926636 1.0068474 0.99231744 1.0031743 1.0042365 1.010151 1.0055106
0.9934607 1.0077137 1.0005091 1.0012485 0.9979096 1.0071019 1.0083208 0.998143
00000000: abf3 803f e5f2 7f3f 0fe1 813f 7504 813f
00000010: 857f 803f 830b 7e3f 65fa 7d3f b73a 803f
00000020: f124 803f 57c4 7e3f ba69 803f e156 803f
00000030: cd62 7f3f 2cc8 7e3f 219c 813f bf20 803f
00000040: f0dc 813f 341f 7e3f 60e0 803f 8408 7e3f
00000050: 0468 803f d28a 803f a14c 813f 92b4 803f
00000060: 7153 7e3f c3fc 803f af10 803f e928 803f
00000070: 0177 7f3f b7e8 803f a810 813f 4d86 7f3f

block_2.1.bias f4 [32]
0.0059201564 0.0055331415 -0.009706941 0.012782242 0.0040678754 0.0009775116 -0.0024572993 0.0012773982
0.0026996464 0.0034481727 0.0013230359 0.009641796 0.01058754 0.0063707633 -0.0059879576 -0.0047647455
-0.008022495 0.00056932785 0.0004630602 0.0015918338 0.008046505 0.006361732 0.0018439817 -0.00845186
0.0010790605 -0.009099169 -0.0005133566 -0.014521159 -0.0028358134 0.0023870603 -0.0024615375 0.0026273234
00000000: dffd c13b 5b4f b53b dd09 1fbc 9c6c 513c
00000010: d04b 853b d91f 803a a40a 21bb 5f6e a73a
00000020: 8dec 303b bdfa 613b b869 ad3a a0f8 1d3c
00000030: 5d77 2d3c d6c1 d03b a136 c4bb 9521 9cbb
00000040: c870 03bc f23e 153a e3c6 f239 14a5 d03a
00000050: 7dd5 033c 1376 d03b c2b1 f13a ac79 0abc
00000060: 436f 8d3a ae14 15bc c792 06ba 28ea 6dbc
00000070: 0ed9 39bb 3a70 1c3b bf51 21bb 2c2f 2c3b

block_2.1.running_mean f4 [32]
-0.020705482 0.009323073 -0.027284727 0.02537055 0.007346041 0.005045009 -0.023042765 -0.028527908
-0.014300639 0.03571485 -0.02125486 0.02487789 0.018850971 -0.021733716 0.0041964217 0.005058395
-0.00063134375 -0.009241566 -0.01270055 -0.002198279 0.012831461 0.0077166166 -0.038965404 -0.027996346
0.005466988 -0.022370253 0.033270516 -0.016157903 0.0033315988 -0.026771083 -0.009963441 -0.03088621
00000000: 8b9e a9bc cdbf 183c 3884 dfbc e6d5 cf3c
00000010: 0fb7 f03b 9a50 a53b 2ec4 bcbc 5cb3 e9bc
00000020: 3a4d 6abc bc49 123d ac1e aebc b7cc cb3c
00000030: 5a6d 9a3c e80a b2bc 2382 893b e5c0 a53b
00000040: c380 25ba f069 17bc f815 50bc 0011 10bb
00000050: 0c3b 523c acdb fc3b 309a 1fbd 9858 e5bc
00000060: 6b24 b33b d241 b7bc aa46 083d 945d 84bc
00000070: f456 5a3b 084f dbbc b33d 23bc 1405 fdbc

block_2.1.running_var f4 [32]
0.18615206 0.07706535 0.08611992 0.17040081 0.20386145 0.12886028 0.15052858 0.19469091
0.19715005 0.16538925 0.20285356 0.21803156 0.11294002 0.12288304 0.12356697 0.15075219
0.3905869 0.07906185 0.13325077 0.14138125 0.20140512 0.19736391 0.18717751 0.08482416
0.14182985 0.14119451 0.20477764 0.19616786 0.17101665 0.119750515 0.08760654 0.19274509
00000000: a59e 3e3e 70d4 9d3d a45f b03d 8d7d 2e3e
00000010: 0ec1 503e f3f3 033e 2a24 1a3e 0e5d 473e
00000020: b4e1 493e cd5b 293e d8b8 4f3e aa43 5f3e
00000030: 194d e73d 1aaa fb3d ae10 fd3d c85e 1a3e
00000040: 02fb c73e 2eeb a13d e472 083e 3fc6 103e
00000050: 253d 4e3e c419 4a3e 76ab 3f3e 4ab8 ad3d
00000060: d83b 113e 4b95 103e 3bb1 513e 3ae0 483e
00000070: fd1e 2f3e c23f f53d 0f6b b33d f85e 453e

block_3.0.parametrizations.weight.original f4 [64, 1, 129, 1]
0.011418402 0.027789218 0.02770293 0.027064973 0.020037865 0.00693785 0.036962453 0.017384969
0.040407494 0.015067335 0.0013549714 0.0046367953 0.032015998 0.0415441 -0.0017205654 0.0056691663
-0.00014671136 0.02371477 0.003454314 0.0293142 0.028919661 0.0064572413 0.0040226313 0.002146751
0.041449532 0.03798214 0.016373398 -0.002685246 0.0105073275 0.006930857 0.036745653 0.02525777
0.011026627 0.027055059 0.009086518 0.033292804 0.036577888 0.02610298 0.0143214585 0.001962308
0.022585813 0.013681703 0.017851563 -0.028995398 0.02471774 0.035897855 0.0075991927 0.008860491
0.019723486 0.040361404 0.04278946 0.0036462503 0.017444454 -0.0040803873 0.0062820124 0.0009564409
0.03230694 0.026644161 0.020459114 0.026072215 0.026222508 0.03645163 0.020245736 0.009932601
0.041881636 0.040524185 0.021870222 0.011525093 0.029266054 0.03648797 0.022546208 0.012936284
0.027822101 0.015337934 0.02094828 0.011929061 0.037874825 0.010438409 0.004504216 0.0043833284
0.0030499706 0.031588443 -0.0018418394 0.028372731 0.03246016 0.027045093 -0.0011614079 -0.0016577272
0.005421745 0.007867359 0.041415308 0.02615714 0.025558133 0.004747303 0.0018214036 0.035493206
0.023272349 0.04744781 0.0066015054 0.033074524 0.0037363362 0.04268536 0.003077689 0.031338986
0.03574407 0.017272195 -0.007473064 0.028809516 0.030849483 0.015725406 0.045401935 0.020164538
-0.010170404 0.037553594 0.019006254 0.02260341 0.033189256 0.040235095 0.01742102 0.022687305
-0.013834211 0.01716392 0.041804463 0.021377759 0.01593395 -0.017034555 -0.021800179 0.037126992
0.036783848 0.0023298112 -0.0067795655 0.004280751 0.004165275 -0.031666245 -0.039671306 -0.024449477
-0.0054609384 -0.005980176 -0.021253115 -0.030846642 -0.016586203 -0.016308459 -0.014250468 -0.0023830426
-0.0036899906 0.007104298 -0.0021272704 0.0037069041 -0.02188448 -0.015920157 -0.034640227 -0.013306061
-0.03317074 0.0005709803 0.01006246 0.007013456 -0.008737635 -0.03574057 -0.041347712 -0.04124976
-0.039276104 -0.015897952 -0.018480387 0.0082278345 -0.039309874 -0.027215403 -0.0052067605 -0.010838215
-0.015277068 -0.0029556921 -0.0027235372 -0.0109318495 -0.016941354 -0.027172873 0.0039407 -0.020933572
-0.0076502766 0.018882008 -0.029611943 -0.0008625884 -0.03230518 -0.030333564 -0.03029741 -0.01740149
-0.0019344165 -0.040948406 -0.014958043 -0.012183202 -0.03685957 -0.00032933883 -0.0137816705 0.0029290712
-0.033871617 -0.014565662 0.005883082 -0.013678437 0.012067763 -0.030252654 -0.017339354 -0.012385539
0.001471737 -0.00503397 -0.0016375332 -0.008390621 -0.01997264 -0.04185268 -0.042008817 -0.021326398
0.0054302597 -0.0118049 -0.024658168 -0.013639942 -0.040792882 -0.019156596 -0.021958774 -0.026286092
0.0017923391 0.0030908543 -0.008596658 -0.013407455 -0.0070744166 -0.024717635 -0.016811322 -0.013552555
-0.009309896 -0.030858923 0.0040980903 -0.02573526 0.0049214493 0.0015816592 -0.007680115 -0.044396956
-0.015473475 -0.020649057 -0.023049284 -0.035372995 -0.01764462 -0.03701438 -0.038259234 -0.031073056
0.0062814564 -0.03307693 0.005374276 -0.03639046 -0.031219872 -0.00074046507 -0.041047636 0.013546777
0.01661971 0.018745784 0.0053231483 -0.035332695 -0.02636949 0.008885582 -0.0056742863 -0.02203031
00000000: 4014 3b3c 37a6 e33c 41f1 e23c 5db7 dd3c
00000010: 7326 a43c e756 e33b f165 173d ec6a 8e3c
00000020: 5482 253d fcdc 763c 4c99 b13a 42f0 973b
00000030: 3523 033d 252a 2a3d 9884 e1ba 6ac4 b93b
00000040: 88d6 19b9 7a45 c23c c661 623b 5524 f03c
00000050: ede8 ec3c 4497 d33b 47d0 833b 81b0 0c3b
00000060: fcc6 293d 2993 1b3d 8121 863c f4fa 2fbb
00000070: ed26 2c3c 3e1c e33b 9c82 163d 62e9 ce3c
00000080: 07a9 343c 92a2 dd3c 9edf 143c 095e 083d
00000090: b2d2 153d ebd5 d53c 8da4 6a3c 119a 003b
000000a0: e205 b93c 3929 603c 713d 923c c287 edbc
000000b0: dc7c ca3c a109 133d a602 f93b 982b 113c
000000c0: 2693 a13c 0052 253d 0044 2f3d eef5 6e3b
000000d0: ace7 8e3c c5b4 85bb 57d9 cd3b aab9 7a3a
000000e0: 4854 043d db44 da3c df99 a73c 6695 d53c
000000f0: 96d0 d63c 4e4e 153d 63da a53c 59bc 223c
00000100: 148c 2b3d b0fc 253d 2e29 b33c bed3 3c3c
00000110: 5dbf ef3c 6974 153d d3b2 b83c b5f2 533c
00000120: 2deb e33c f54b 7b3c ba9b ab3c 1c72 433c
00000130: a222 1b3d dc05 2b3c 1a98 933b 06a2 8f3b
00000140: 04e2 473b e262 013d e069 f1ba ee6d e83c
00000150: f2f4 043d ac8d dd3c 623a 98ba 1848 d9ba
00000160: e5a8 b13b 18e6 003c 19a3 293d 8047 d63c
00000170: 4a5f d13c 448f 9b3b 2abc ee3a 5361 113d
00000180: a7a5 be3c a358 423d 7151 d83b 2779 073d
00000190: 52dd 743b d8d6 2e3d 0eb3 493b 4f5d 003d
000001a0: 6068 123d 6b7e 8d3c 9be0 f4bb ef01 ec3c
000001b0: 0eb8 fc3c 91d2 803c 61f7 393d 1a30 a53c
000001c0: c4a1 26bc ccd1 193d 01b3 9b3c c92a b93c
000001d0: 75f1 073d 8ecd 243d 87b6 8e3c bada b93c
000001e0: e3a8 62bc 599b 8c3c 283b 2b3d 6920 af3c
000001f0: ea87 823c 0d8c 8bbc 4a96 b2bc 7912 183d
00000200: a9aa 163d bfaf 183b 1e27 debb 8b45 8c3b
00000210: dc7c 883b 77b4 01bd 617e 22bd 454a c8bc
00000220: acf1 b2bb 5af5 c3bb 031b aebc 19b2 fcbc
00000230: cadf 87bc 5199 85bc cc7a 69bc d22c 1cbb
00000240: c5d3 71bb 2ccb e83b ad69 0bbb 88ef 723b
00000250: 1547 b3bc fd6a 82bc e9e2 0dbd aa01 5abc
00000260: 0bde 07bd d7ad 153a 04dd 243c 22d1 e53b
00000270: 4c28 0fbc b464 12bd 385c 29bd 82f5 28bd
00000280: fbdf 20bd 6c3c 82bc 2e64 97bc 0ace 063c
00000290: 6403 21bd d6f2 debc 799d aabb c592 31bc
000002a0: ab4c 7abc 49b4 41bb 5f7d 32bb 801b 33bc
000002b0: 98c8 8abc a599 debc fd20 813b e27c abbc
000002c0: 2caf fabb 71ae 9a3c bf94 f2bc 541f 62ba
000002d0: 7052 04bd 187e f8bc 4632 f8bc 928d 8ebc
000002e0: 3f8c fdba 84b9 27bd 9412 75bc 0e9c 47bc
000002f0: 0ffa 16bd 1cab acb9 84cc 61bc a9f5 3f3b
00000300: f7bc 0abd d0a4 6ebc dec6 c03b 861b 60bc
00000310: deb7 453c 6ad4 f7bc 430b 8ebc b7ec 4abc
00000320: 4de7 c03a 00f4 a4bb 7fa2 d6ba d178 09bc
00000330: a99d a3bc b76d 2bbd 7011 2cbd b3b4 aebc
00000340: 52f0 b13b 5769 41bc edff c9bc 107a 5fbc
00000350: 7016 27bd 4bee 9cbc e3e2 b3bc ee55 d7bc
00000360: ecec ea3a ee8f 4a3b ffd8 0cbc f1aa 5bbc
00000370: 82d0 e7bb a37c cabc e6b7 89bc 890b 5ebc
00000380: 8988 18bc dacb fcbc 4649 863b c1d2 d2bc
00000390: 1c44 a13b ad4f cf3a 79a9 fbbb 95d9 35bd
000003a0: 7584 7dbc 3628 a9bc dad1 bcbc 46e3 10bd
000003b0: 738b 90bc 649c 17bd b7b5 1cbd ec8c febc
000003c0: add4 cd3b ad7b 07bd b21a b03b 2a0e 15bd
000003d0: d1c0 ffbc c51b 42ba 9121 28bd 4df3 5d3c
000003e0: 0f26 883c c290 993c ce6d ae3b 04b9 10bd
000003f0: d404 d8bc d594 113c 5def b9bb e978 b4bc

block_3.1.weight f4 [64]
1.0050437 1.0034794 1.0143327 0.98751926 1.0104543 1.001348 1.0139385 0.9944388
0.9997582 0.9959308 0.9967334 0.99871325 1.0102179 0.98987997 0.99879265 0.9922981
0.98775434 0.9948145 1.0037329 1.0029894 0.9896067 1.0075778 0.9879537 0.9956408
0.99657094 0.9949323 1.004763 1.0142828 1.0029527 1.0028346 1.0098892 0.9850282
0.9920351 0.9990025 1.0045445 1.0036658 0.9883517 1.0114585 0.99716187 0.9974347
1.0022916 0.9931582 1.0061002 0.99251527 1.0115212 0.99272513 1.0235187 1.0107998
0.99449325 1.0051893 1.000833 1.0146925 1.0002432 1.001201 0.99466 1.0084614
1.0116304 0.9954245 0.9909561 0.9958943 0.99761117 1.003825 1.0048392 0.9957473
00000000: 46a5 803f 0372 803f a7d5 813f 10ce 7c3f
00000010: 9156 813f 2c2c 803f bdc8 813f 8b93 7e3f
00000020: 27f0 7f3f 52f5 7e3f ec29 7f3f acab 7f3f
00000030: d24e 813f c668 7d3f e0b0 7f3f 4007 7e3f
00000040: 78dd 7c3f 2aac 7e3f 527a 803f f561 803f
00000050: dd56 7d3f 4ff8 803f 89ea 7c3f 51e2 7e3f
00000060: 461f 7f3f e2b3 7e3f 139c 803f 05d4 813f
00000070: c160 803f e25c 803f 0d44 813f cf2a 7c3f
00000080: 03f6 7d3f a1be 7f3f ea94 803f 1f78 803f
00000090: 9e04 7d3f 7977 813f 0046 7f3f e157 7f3f
000000a0: 174b 803f 9e3f 7e3f e4c7 803f 7b15 7e3f
000000b0: 8779 813f 3c23 7e3f a902 833f e361 813f
000000c0: 1c97 7e3f 0baa 803f 4c1b 803f 72e1 813f
000000d0: f807 803f 5b27 803f 0aa2 7e3f 4315 813f
000000e0: 1b7d 813f 24d4 7e3f 4daf 7d3f eef2 7e3f
000000f0: 7263 7f3f 567d 803f 929e 803f 4ce9 7e3f

block_3.1.bias f4 [64]
-0.017896514 0.019642554 0.021564301 -0.005468339 -0.02269436 0.024677346 0.028880179 -0.0029952915
0.015664702 0.0021881412 -0.0049166107 -0.007273437 0.016792431 0.0035840515 -0.017671244 -0.019650714
-0.005030046 0.0123602245 0.024806153 0.031473987 -0.0054684747 0.0045895856 0.0016271123 -0.014941729
-0.012553085 -0.017505702 0.010661308 -0.0028966907 0.02467175 -0.011035834 0.0072338143 -0.020310989
-0.0066106976 -0.019482043 0.031754736 0.030079016 -0.021061575 0.029429454 -0.014998447 -0.011919695
0.004968818 -0.010718556 0.006758878 0.021167543 0.029739767 0.02885958 0.01599943 0.006214035
-0.006683854 -0.017141549 -0.012647365 0.027945086 0.030300114 0.027075794 -0.005444711 0.029824642
0.024814412 0.0063822074 -0.01943448 0.029920094 0.024782566 0.024584789 0.0073800236 0.013226391
00000000: b69b 92bc 6ce9 a03c 9ea7 b03c c12f b3bb
00000010: 86e9 b9bc 2528 ca3c 2096 ec3c a74c 44bb
00000020: 4353 803c eb66 0f3b 851b a1bb 0356 eebb
00000030: 4890 893c 68e2 6a3b 49c3 90bc 89fa a0bc
00000040: 16d3 a4bb 8a82 4a3c 4636 cb3c deea 003d
00000050: e430 b3bb 3c64 963b d444 d53a 27ce 74bc
00000060: 74ab 4dbc 1e68 8fbc c4ac 2e3c 68d6 3dbb
00000070: 691c ca3c a5cf 34bc a209 ed3b 3b63 a6bc
00000080: 8d9e d8bb ce98 9fbc 4111 023d 4568 f63c
00000090: 5389 acbc 0a16 f13c 0cbc 75bc d34a 43bc
000000a0: 77d1 a23b e29c 2fbc 9479 dd3b 8e67 ad3c
000000b0: d0a0 f33c ed6a ec3c 3d11 833c 1b9f cb3b
000000c0: 3b04 dbbb 6f6c 8cbc e536 4fbc 18ed e43c
000000d0: f237 f83c 0ece dd3c 8c69 b2bb cf52 f43c
000000e0: 9847 cb3c d621 d13b 0f35 9fbc fc1a f53c
000000f0: cf04 cb3c 0a66 c93c 20d4 f13b 81b3 583c

block_3.1.running_mean f4 [64]
0.000941541 -0.00037391044 0.0008522333 -0.00032490198 -0.00310383 -0.0034021623 0.003800491 0.0032291138
8.3314e-05 -0.0005422697 5.3203665e-05 -0.00031643582 -6.3353655e-05 -0.00034942722 -7.0489477e-06 -0.00027530003
-0.0005766194 -0.00050784874 -0.0003652916 0.0009833961 -0.00038967625 0.00022952023 -0.0030500772 -0.0029428904
-0.0019574552 -0.0006984068 0.001465112 -0.001051147 0.0009517952 0.0013487838 0.0010590628 0.00038644174
-0.002332306 -0.0010669599 -0.00018025802 5.0966715e-05 0.00018210014 0.00071707444 -0.00013555962 0.00033811686
0.0016597249 0.0011395209 0.0018072951 0.0012720013 -0.0003401457 0.0008434707 0.001957814 0.0019130859
-0.000112427835 0.0008842065 0.0009024472 0.0027529022 0.00051587675 0.00078345486 -0.00032657167 0.002062902
-0.00027822284 0.00036309572 -0.0006184971 -0.0010082935 0.00016259775 0.0005432006 -0.0007757116 -0.0006709727
00000000: bfd1 763a 6909 c4b9 6968 5f3a 9b57 aab9
00000010: a069 4bbb d0f6 5ebb a911 793b 8a9f 533b
00000020: ddb8 ae38 1b27 0eba 0027 5f38 4ce7 a5b9
00000030: bcdc 84b8 5433 b7b9 0086 ecb6 2556 90b9
00000040: 4628 17ba 2721 05ba 9c84 bfb9 4ce5 803a
00000050: 764d ccb9 5eab 7039 cee3 47bb 82dd 40bb
00000060: a648 00bb 4915 37ba 0009 c03a a4c6 89ba
00000070: e581 793a adc9 b03a 40d0 8a3a 559b ca39
00000080: 9ad9 18bb 3cd9 8bba a503 3db9 18c5 5538
00000090: 22f2 3e39 0dfa 3b3a 0225 0eb9 4745 b139
000000a0: 208b d93a fa5b 953a c3e2 ec3a 48b9 a63a
000000b0: 9555 b2b9 5c1c 5d3a ab4e 003b 83c0 fa3a
000000c0: 3cc7 ebb8 18ca 673a 3592 6c3a 096a 343b
000000d0: e73b 073a c460 4d3a b537 abb9 c131 073b
000000e0: 70de 91b9 e25d be39 a322 22ba b728 84ba
000000f0: 007f 2a39 9365 0e3a 2059 4bba 37e4 2fba

block_3.1.running_var f4 [64]
0.1294562 0.09265028 0.17375137 0.04467476 0.10023944 0.078609586 0.06258614 0.062898934
0.074915886 0.07977705 0.059124757 0.053010296 0.038275734 0.040067434 0.039088886 0.052758098
0.047212135 0.039844304 0.043473493 0.05422621 0.060711622 0.056295957 0.08320826 0.11810225
0.054051694 0.042911295 0.0730376 0.07250286 0.082596734 0.098003715 0.08926847 0.07130128
0.08834852 0.054266628 0.17299809 0.26356813 0.038131308 0.060086776 0.04606192 0.03963375
0.08572587 0.04803069 0.14955613 0.063411094 0.115706205 0.087438844 0.30923122 0.3387142
0.03712706 0.05334693 0.061549906 0.19910277 0.050993517 0.07453935 0.048036344 0.055023823
0.03938605 0.08207208 0.06315425 0.069357775 0.10853706 0.26689893 0.054947555 0.061706167
00000000: 2b90 043e 6ebf bd3d e1eb 313e e2fc 363d
00000010: 564a cd3d 10fe a03d 2a2d 803d 28d1 803d
00000020: 806d 993d 2662 a33d cd2c 723d 5321 593d
00000030: 04c7 1c3d c01d 243d ab1b 203d e018 583d
00000040: 8361 413d c833 233d 4311 323d 4d1c 5e3d
00000050: c0ac 783d 9796 663d 1869 aa3d 98df f13d
00000060: 4f65 5d3d c1c3 2f3d bd94 953d 617c 943d
00000070: 7a28 a93d 2cb6 c83d 63d2 b63d 6806 923d
00000080: 12f0 b43d af46 5e3d 6926 313e 67f2 863e
00000090: 932f 1c3d 8d1d 763d 6cab 3c3d 0057 223d
000000a0: 0c91 af3d d4bb 443d 3e25 193e addd 813d
000000b0: 60f7 ec3d 2313 b33d 8e53 9e3e f36b ad3e
000000c0: 8b12 183d 4f82 5a3d c11b 7c3d 99e1 4b3e
000000d0: 94de 503d 16a8 983d c2c1 443d a960 613d
000000e0: 4453 213d 6815 a83d 0457 813d 730b 8e3d
000000f0: ae48 de3d faa6 883e b010 613d 9bbf 7c3d

block_4.0.weight f4 [32, 64, 1, 16]
0.0273915 0.03110941 0.026311494 -0.010020149 -0.023101548 0.025378294 -0.005163063 0.030663462
0.0026662473 -0.0043776087 -0.009018592 0.02806604 0.009548386 0.0031346222 0.023569636 0.015661592
-0.011137401 0.023361338 0.022445943 0.014470003 -0.006370306 0.013643936 0.018152904 -0.029007215
0.0038502621 0.013379179 0.02123605 0.013892336 0.025445336 0.0069798916 0.004947151 0.014239428
-0.029827904 -0.01140749 -0.014798745 0.02574381 -0.030030318 -0.03504993 0.02045067 -0.009771928
-0.012196709 0.03949133 0.04375335 -0.015058151 0.030679086 0.044623546 0.024186067 0.013951165
0.0070192283 0.010877632 -0.026995175 0.022021428 0.006765469 -0.024405314 0.0065423828 -0.02379325
-0.027084272 -0.0042335447 -0.020452727 0.022023842 -0.023312137 -0.024022821 -0.016551847 -0.01809589
0.0073367027 0.03168492 -0.0087250015 0.022525113 -0.0023031724 0.022954088 -0.007978595 0.029135182
-0.022932377 -0.02479871 -0.03566998 -0.034689356 -0.02563689 -0.028580744 -0.022883762 -0.006572189
-0.0023864335 -0.023370693 -0.019048361 0.010222624 -0.025991093 -0.0035915182 -0.0282064 0.02252807
0.021567836 -0.010894998 -8.397183e-05 0.0026480595 -0.020040516 0.009979586 -0.022901408 -0.0033512304
0.00041091233 -0.029256692 -0.015595268 0.0007549266 0.02413935 -0.026856061 -0.019805385 0.0004918036
0.018694313 0.008390804 0.013031253 0.024605623 0.030542323 0.005411995 0.0048701316 0.04204636
0.011436715 -0.008353498 0.010723243 0.010961866 -0.004151114 -0.0034864529 0.0078422865 -0.007451667
0.021896519 -0.00019022648 0.0057108877 -0.00923756 0.041133106 -0.016129203 -0.0009642923 -0.0066176914
-0.0015384376 0.031436637 0.018322228 0.012035553 -0.00024552114 -0.00431563 0.030855024 -0.0002136476
-0.02062631 0.0030738255 0.0028704766 0.016085526 -0.016390057 0.015468135 0.0044382797 0.025216753
-0.010730291 -0.009512754 -0.014671063 0.009550541 -0.011037449 0.033877883 0.03542423 0.0014594042
0.020217607 -0.018047828 0.009749807 0.007782138 -0.012143402 0.012024619 0.004208909 0.010097757
-0.022724872 -0.026037684 0.0072552837 0.028601775 0.00079286535 0.009226561 -0.0057276925 0.028937677
0.029128123 -0.013619861 -0.009197183 0.03607999 0.02659658 -0.001295737 0.034775104 -0.000900156
0.013924593 0.01819585 0.018666418 0.0054036 -0.0029421537 -0.011188107 -0.010407036 0.018101394
0.008806487 -0.022228463 0.027655868 -0.015077181 0.020127894 0.010930851 0.03698126 0.022815766
-0.008659259 -0.023378106 0.01692814 -0.007073139 -0.0049317544 0.012980724 -0.026301593 -0.034310542
0.017057661 -0.030970715 -0.033098646 -0.007712881 0.0054153516 -0.008237687 -0.005820106 0.022808643
-0.02937459 -0.007719703 -0.029220097 -0.020600507 -0.010995645 -0.023461644 -0.012115032 0.02120716
-0.002224487 0.0014085977 -0.01521221 -0.007000509 -0.012208115 -0.015999177 -0.020240523 -0.01580834
0.008730228 0.013595776 -0.0075211767 -0.03136507 -0.014336167 0.028664894 0.015806492 -0.005175759
0.020083781 -0.01084763 0.005544614 -0.0069722338 -0.022235552 0.0053776205 0.030052297 0.038082108
-0.014837303 -0.031617995 -0.022132093 -0.013936977 0.017879302 0.0065919687 -0.010267738 -0.006188159
0.015056823 -0.024415914 -0.012238206 0.013338951 -0.019172955 -0.015601298 0.026893117 0.0013558717
00000000: 2464 e03c 29d9 fe3c 348b d73c 8d2b 24bc
00000010: 753f bdbc 24e6 cf3c e92e a9bb f131 fb3c
00000020: 35bc 2e3b 0b72 8fbb b7c2 13bc c0ea e53c
00000030: d570 1c3c 3c6e 4d3b 1c15 c13c bd4c 803c
00000040: a579 36bc 4760 bf3c 8ee0 b73c 9713 6d3c
00000050: 00be d0bb d18a 5f3c 66b5 943c 8aa0 edbc
00000060: ae54 7c3b 5834 5b3c 3af7 ad3c ae9c 633c
00000070: bd72 d03c 93b7 e43b b61b a23b 7d4c 693c
00000080: a659 f4bc 7be6 3abc 6f76 72bc afe4 d23c
00000090: 2402 f6bc 8490 0fbd 2a88 a73c 701a 20bc
000000a0: b5d4 47bc a9c1 213d b636 333d 77b6 76bc
000000b0: b552 fb3c 2ec7 363d dc21 c63c 6d93 643c
000000c0: 8e01 e63b 1838 323c fc24 ddbc 4866 b43c
000000d0: deb0 dd3b a7ed c7bc 7c61 d63b 10ea c2bc
000000e0: d6df ddbc 8cb9 8abb 7a8c a7bc 586b b43c
000000f0: 18f9 bebc 82cb c4bc bd97 87bc d53d 94bc
00000100: b968 f03b 0cc8 013d 4ff3 0ebc 9686 b83c
00000110: d2f0 16bb 360a bc3c a7b8 02bc e8ac ee3c
00000120: aedc bbbc aa26 cbbc af1a 12bd 6d16 0ebd
00000130: 7504 d2bc 2a22 eabc ba76 bbbc 845b d7bb
00000140: b665 1cbb e573 bfbc 4f0b 9cbc cb7c 273c
00000150: 46eb d4bc ad5f 6bbb 1c11 e7bc c98c b83c
00000160: 08af b03c ef80 32bc 081a b0b8 118b 2d3b
00000170: 022c a4bc 6b81 233c bc9b bbbc 51a0 5bbb
00000180: b86f d739 bbab efbc 4c83 7fbc 44e6 453a
00000190: e3bf c53c 3e01 dcbc e73e a2bc 62ec 003a
000001a0: d124 993c 9579 093c 0981 553c bb91 c93c
000001b0: e533 fa3c 1b57 b13b a095 9f3b ce38 2c3d
000001c0: 0f61 3b3c 1cdd 08bc 8ab0 2f3c 6699 333c
000001d0: 1106 88bb f97c 64bb ef7c 003c 1d2d f4bb
000001e0: 5460 b33c 8877 47b9 6622 bb3b 2359 17bc
000001f0: 307b 283d 6421 84bc 90c8 7cba 38d9 d8bb
00000200: 66a5 c9ba b4c3 003d 7f18 963c c530 453c
00000210: 4ab9 80b9 216a 8dbb adc3 fc3c 9706 60b9
00000220: 82f8 a8bc 3c72 493b 9b1e 3c3b cbc5 833c
00000230: 7144 86bc 0f6e 7d3c fd6e 913b 5d93 ce3c
00000240: 1ace 2fbc 62db 1bbc e65e 70bc df79 1c3c
00000250: 6bd6 34bc 89c3 0a3d ff18 113d 7b49 bf3a
00000260: 659f a53c 0ad9 93bc a8bd 1f3c 4e01 ff3b
00000270: 1ff5 46bc e802 453c e3ea 893b 1071 253c
00000280: 8329 babc fb4c d5bc bbbd ed3b 454e ea3c
00000290: 4bd8 4f3a 002b 173c 5eaf bbbb b50e ed3c
000002a0: 1a9e ee3c d625 5fbc c8af 16bc 9dc8 133d
000002b0: 12e1 d93c b8d5 a9ba 5770 0e3d 72f8 6bba
000002c0: fa23 643c 770f 953c 51ea 983c af10 b13b
000002d0: 26d1 40bb 524e 37bc 4682 2abc 6049 943c
000002e0: 1549 103c 7718 b6bc 8f8e e23c 4806 77bc
000002f0: 41e3 a43c 5017 333c a979 173d 21e8 ba3c
00000300: 91df 0dbc 7183 bfbc e2ac 8a3c cac5 e7bb
00000310: 8e9a a1bb 1aad 543c 7076 d7bc 3689 0cbd
00000320: 82bc 8b3c 4cb6 fdbc 7292 07bd 56bc fcbb
00000330: 4373 b13b 5df7 06bc 96b6 bebb 31d9 ba3c
00000340: fba2 f0bc 90f5 fcbb fc5e efbc 65c2 a8bc
00000350: 1427 34bc a232 c0bc 217e 46bc a3ba ad3c
00000360: b3c8 11bb b2a0 b83a a23c 79bc 8764 e5bb
00000370: 8c04 48bc b510 83bc 74cf a5bc 7e80 81bc
00000380: 3b09 0f3c d1c0 5e3c 3474 f6bb a978 00bd
00000390: 3ee2 6abc a4d2 ea3c 9e7c 813c 6a99 a9bb
000003a0: be86 a43c 42ba 31bc 98af b53b 5677 e4bb
000003b0: 5527 b6bc c036 b03b 3c30 f63c fcfb 1b3d
000003c0: 2918 73bc df81 01bd 5d4e b5bc eb57 64bc
000003d0: 9d77 923c 7101 d83b 043a 28bc 0ac6 cabb
000003e0: e5b0 763c e203 c8bc c282 48bc 9e8b 5a3c
000003f0: 9a10 9dbc 969c 7fbc f44e dc3c 81b7 b13a

block_4.1.weight f4 [32]
1.003551 1.0007274 0.9953228 0.99281573 0.9876225 0.9997684 0.98721606 0.98756844
1.0084296 0.9924756 0.9985441 0.99295276 1.0033742 0.99577177 1.0008243 0.9909984
1.0096188 1.0024804 0.9827524 1.0108101 0.99582636 1.0117943 0.98635584 1.0006725
0.99539286 1.0104021 1.0026108 0.9898419 1.0023708 1.0115048 1.0035449 1.0011399
00000000: 5c74 803f d617 803f 7acd 7e3f 2c29 7e3f
00000010: d4d4 7c3f d2f0 7f3f 31ba 7c3f 49d1 7c3f
00000020: 3914 813f e212 7e3f 96a0 7f3f 2732 7e3f
00000030: 916e 803f e6ea 7e3f 031b 803f 12b2 7d3f
00000040: 303b 813f 4751 803f a995 7b3f 3a62 813f
00000050: 7aee 7e3f 7a82 813f d181 7c3f 0916 803f
00000060: 11d2 7e3f db54 813f 8d55 803f 4766 7d3f
00000070: b04d 803f fd78 813f 2974 803f 5a25 803f

block_4.1.bias f4 [32]
-0.0022227229 -0.022311756 0.028515544 -0.031247059 0.03228733 0.024558173 -0.02598339 -0.026022578
0.003949259 0.010308694 -0.03138622 -0.03162585 0.011689581 -0.027528783 0.029821873 0.024370495
0.02667917 -0.02636754 -0.028478371 0.029682014 -0.029140169 -0.029318808 0.031237341 -0.029629163
-0.030615054 -0.016172808 -0.026390309 -0.02458414 0.030674145 0.031696353 -0.031731997 -0.030960623
00000000: 1aab 11bb 25c7 b6bc 6e99 e93c d5f9 ffbc
00000010: b83f 043d 392e c93c 1edb d4bc 4d2d d5bc
00000020: c968 813b cce5 283c d68e 00bd 1b8a 01bd
00000030: a885 3f3c 0b84 e1bc 004d f43c a2a4 c73c
00000040: 468e da3c bd00 d8bc 794b e9bc b227 f33c
00000050: 5db7 eebc ff2d f0bc 74e5 ff3c dcb8 f2bc
00000060: 6ccc fabc d67c 84bc 7d30 d8bc ae64 c9bc
00000070: 5848 fb3c 09d4 013d 69f9 01bd 22a1 fdbc

block_4.1.running_mean f4 [32]
0.10769351 0.14524555 -0.0032603743 0.14136523 0.033783413 -0.17171517 0.086939484 -0.04025339
-0.010449499 0.09302722 0.1985851 0.10877826 0.034124836 0.05416467 -0.16682768 -0.014896811
0.08130889 0.20638835 -0.0002587175 -0.06353553 0.00048168917 0.22593275 -0.04678915 0.09825438
0.0193084 0.07340958 0.17708781 -0.06345392 -0.0689909 -0.12150069 0.06567294 0.146855
00000000: 6a8e dc3d 40bb 143e 01ac 55bb 0cc2 103e
00000010: 7a60 0a3d 1ad6 2fbe 540d b23d bde0 24bd
00000020: 6034 2bbc 0e85 be3d e459 4b3e 23c7 de3d
00000030: 7cc6 0b3d c6db 5d3d e0d4 2abe c111 74bc
00000040: 4685 a63d 7857 533e 7aa4 87b9 ea1e 82bd
00000050: 3a8b fc39 ea5a 673e fba5 3fbd 9839 c93d
00000060: a62c 9e3c c357 963d 8256 353e 21f4 81bd
00000070: 1a4b 8dbd 5bd5 f8bd 897f 863d 2861 163e

block_4.1.running_var f4 [32]
0.5972687 0.83348083 0.30601004 0.6809397 0.277925 0.6661987 0.5851986 0.39917713
0.35052133 0.41855735 1.0967177 0.4218288 0.4090559 0.5040889 0.94733083 0.25502414
0.32487845 1.4728754 0.25131544 0.36415926 0.32015103 1.3890933 0.41093507 0.5272096
0.2724606 0.3880705 0.81709474 0.36013225 0.525215 0.54964274 0.4250601 0.6096579
00000000: 9ae6 183f 005f 553f 59ad 9c3e 1052 2e3f
00000010: 304c 8e3e ff8b 2a3f 93cf 153f f260 cc3e
00000020: 8877 b33e 264d d63e 3f61 8c3f f2f9 d73e
00000030: c66f d13e f80b 013f 4684 723f 8692 823e
00000040: 7856 a63e 2e87 bc3f 6bac 803e 1573 ba3e
00000050: d6ea a33e cfcd b13f 1566 d23e 35f7 063f
00000060: f57f 8b3e 2db1 c63e 1f2d 513f 4163 b83e
00000070: 7e74 063f 63b5 0c3f 7aa1 d93e 8a12 1c3f

block_5.0.weight f4 [8, 32, 1, 16]
-0.04300216 0.03520255 0.019756822 -0.017939538 0.040603194 0.0075802933 0.030207818 0.026272709
0.010245188 0.013531428 0.00095629337 0.006680946 -0.038235374 -0.022173798 -7.301569e-06 0.016748225
-0.012181691 -4.4592132e-05 0.012926305 -0.00097448716 -0.022337332 0.0048453268 -0.055257 -0.036802854
0.03887925 0.006824683 0.029861972 0.03892734 -0.043180842 -0.018794697 -0.05081669 -0.0006928517
0.012824852 0.0063338014 -0.04410203 0.017000616 -0.010185683 -0.011932485 0.014592614 -0.0079494305
-0.019017516 0.032405976 0.0050282003 -0.01880663 0.027473664 -0.03267484 0.025942326 -0.0017661202
0.043072872 -0.017117208 -0.018214373 -0.0026240917 -0.04004056 0.01600426 -0.035572834 -0.012074038
-0.019867925 -0.018261598 -0.02421047 -0.039852858 0.0270846 -0.004685715 -0.04179975 0.014693044
-0.013143855 -0.024930265 0.025638256 0.02551634 -0.032717906 -0.020748658 -0.028167343 0.02988929
0.039065074 0.03460014 -0.040122002 0.02725166 0.01740533 0.046128716 0.028275078 -0.03061171
-0.034117315 0.022160374 0.03537877 -0.018538663 -0.0095505165 0.0069496115 0.042025927 -0.0008090168
-0.023598814 -0.03518958 -0.019820858 0.007986094 0.0021842874 -0.017091997 0.02075611 0.056757707
0.021191433 0.036701363 0.019693945 0.0126653295 -0.009916668 0.035951592 -0.023702698 0.020470452
0.035100706 0.019127663 -0.012097982 -0.0049844785 -0.017472468 0.032761086 -0.028138494 -0.012499057
0.043849 0.012445004 0.027802486 0.0014231864 -0.025024846 -0.0030431931 -0.0093221245 -0.044072777
-0.0046774903 -0.050021555 0.005488021 0.031960014 0.029800462 -0.011015756 0.005527036 -0.009942783
0.035672743 0.01391731 0.005737267 0.0278366 -0.025671087 -0.020797472 -0.021334158 -0.04308667
-0.018824821 0.02908066 -0.004152269 -0.036792744 0.016422544 0.024840232 0.021435061 -0.0100809075
0.043084446 -0.015658205 0.014899171 0.023788402 0.01053583 0.04315823 -0.01326657 -0.026614215
0.013610468 0.023843082 0.020543639 0.04770489 0.018193379 0.04165726 -0.03184216 -0.015632058
0.025237087 -0.0001350083 -0.023529861 0.014404787 -0.025541171 0.010375666 -0.033734303 -0.009341634
-0.0012725913 0.016566195 0.013231612 0.036379762 -0.0035862417 -0.026778545 0.017819567 -0.049983744
0.028497875 0.03227244 0.012442011 -0.0026118804 0.038029134 -0.009747228 -0.042932425 0.018410582
0.03423853 0.0054367455 -0.022970434 -0.02397663 -0.039174758 -0.030803185 -0.045255322 -0.0067046317
0.039822582 -0.024130914 0.03219067 0.0020886078 -0.011421286 0.033757027 0.04187552 0.032822788
-0.021206724 0.00905353 0.052327074 0.028989485 0.004641179 -0.01964532 0.011505071 0.02693965
0.033416096 -0.001158827 0.0035431187 -0.021381576 0.04140995 0.037646975 0.034929626 0.013436576
0.037529636 0.00082124624 0.04586912 0.018349262 -0.023313792 0.02235211 -0.0022937385 -0.03414833
-0.021874182 -0.038761906 -0.017414765 0.009111619 -0.033854164 0.010081551 0.026547812 0.02843933
0.022777675 0.0029620347 0.0007006087 0.023869712 0.044633936 0.035359956 0.056322657 0.039483167
0.031660084 -0.028148197 0.028471068 0.00065238297 -0.02103298 -0.022533549 -0.0033471924 0.010170277
-0.00017040022 -0.02067759 0.027384942 -0.008071867 -0.012946614 -0.02060825 -0.017093021 0.008184594
00000000: 0823 30bd 8d30 103d 0fd9 a13c f0f5 92bc
00000010: 894f 263d 1c64 f83b 6376 f73c dd39 d73c
00000020: 6fdb 273c ecb2 5d3c c3af 7a3a d6eb da3b
00000030: b29c 1cbd d3a5 b5bc 0000 f5b6 9333 893c
00000040: b795 47bc 7008 3bb8 dac8 533c ba74 7fba
00000050: c8fc b6bc 8cc5 9e3b 2a55 62bd 97be 16bd
00000060: d93f 1f3d 97a1 df3b 18a1 f43c 4672 1f3d
00000070: 65de 30bd 56f7 99bc 2925 50bd 7ea0 35ba
00000080: 541f 523c c78b cf3b 55a4 34bd e044 8b3c
00000090: dae1 26bc 7880 43bc dc15 6f3c 543e 02bc
000000a0: 9fca 9bbc 21bc 043d 9ac3 a43b 5d10 9abc
000000b0: 7310 e13c 0ed6 05bd 0085 d43c 297d e7ba
000000c0: 2e6d 303d 6339 8cbc 4f36 95bc f4f8 2bbb
000000d0: 9201 24bd 5e1b 833c d2b4 11bd 30d2 45bc
000000e0: 0fc2 a2bc 5999 95bc 0955 c6bc c03c 23bd
000000f0: 86e0 dd3c a08a 99bb 3736 2bbd 18bb 703c
00000100: 5359 57bc 8e3a ccbc 5207 d23c a507 d13c
00000110: 3603 06bd 17f9 a9bc 33bf e6bc 62da f43c
00000120: b302 203d e0b8 0d3d f856 24bd e03e df3c
00000130: 9f95 8e3c 77f1 3c3d 23a1 e73c 69c5 fabc
00000140: 99be 0bbd ac89 b53c 54e9 103d 65de 97bc
00000150: c579 1cbc 91b9 e33b 6123 2c3d 3314 54ba
00000160: 4d52 c1bc f322 10bd 5a5f a2bc 1bd8 023c
00000170: 4326 0f3b 8404 8cbc b808 aa3c c57a 683d
00000180: a899 ad3c 2b54 163d 3255 a13c 3e82 4f3c
00000190: 8579 22bc fa41 133d 292c c2bc a6b1 a73c
000001a0: c2c5 0f3d 9eb1 9c3c 9d36 46bc d654 a3bb
000001b0: 6c22 8fbc 7d30 063d b382 e6bc d8c8 4cbc
000001c0: 029b 333d 21e6 4b3c 0ac2 e33c 368a ba3a
000001d0: e800 cdbc 4f70 47bb d3bb 18bc a885 34bd
000001e0: a245 99bb 67e3 4cbd dbd4 b33b 81e8 023d
000001f0: 1920 f43c 6e7b 34bc 231c b53b 0ee7 22bc
00000200: 951d 123d 6e05 643c afff bb3b 9509 e43c
00000210: 2c4c d2bc 765f aabc f9c4 aebc a67b 30bd
00000220: 8336 9abc 903a ee3c c20f 88bb fdb3 16bd
00000230: 9288 863c be7d cb3c 9598 af3c 642a 25bc
00000240: 5179 303d a345 80bc a71b 743c e5df c23c
00000250: 799e 2c3c afc6 303d 075c 59bc 0e06 dabc
00000260: 71fe 5e3c 9152 c33c 224b a83c 3466 433d
00000270: 480a 953c cea0 2a3d ed6c 02bd cd0e 80bc
00000280: 02be ce3c 0491 0db9 b2c1 c0bc 0e02 6c3c
00000290: b83b d1bc b3fe 293c fb2c 0abd a70d 19bc
000002a0: 14cd a6ba d4b5 873c 67c9 583c f202 153d
000002b0: 2707 6bbb ae5e dbbc 57fa 913c c1bb 4cbd
000002c0: 6074 e93c 1b30 043d 94d9 4b3c 152c 2bbb
000002d0: 70c4 1b3d d6b2 1fbc e9d9 2fbd cad1 963c
000002e0: b33d 0c3d ba26 b23b 7e2c bcbc a36a c4bc
000002f0: b675 20bd f656 fcbc a55d 39bd 87b2 dbbb
00000300: 011d 233d 32ae c5bc 5dda 033d 06e1 083b
00000310: 5820 3bbc cf44 0a3d aa85 2b3d 3071 063d
00000320: b9b9 adbc 4255 143c ea54 563d 5b7b ed3c
00000330: 0815 983b 39ef a0bc c47f 3c3c 8ab0 dc3c
00000340: 51df 083d c8e3 97ba ab33 683b 6a28 afbc
00000350: 7b9d 293d b733 1a3d 5e12 0f3d 1625 5c3c
00000360: adb8 193d e748 573a 42e1 3b3d 3151 963c
00000370: 91fc bebc c61b b73c 8c52 16bb 1fdf 0bbd
00000380: 7c31 b3bc cec4 1ebd 69a9 8ebc e648 153c
00000390: aaaa 0abd 172d 253c cc7a d93c 99f9 e83c
000003a0: 3f98 ba3c b21e 423b 0ea9 373a 6a8a c33c
000003b0: 13d2 363d 9ad5 103d 96b2 663d 1ab9 213d
000003c0: 01ae 013d 0c97 e6bc 283c e93c ae04 2b3a
000003d0: 5b4d acbc 4798 b8bc 925c 5bbb 3ca1 263c
000003e0: 76ad 32b9 0d64 a9bc 6356 e03c dd3f 04bc
000003f0: 091e 54bc a2d2 a8bc aa06 8cbc ad18 063c

block_5.1.weight f4 [8]
1.0169317 1.0322326 0.9995197 1.0326184 1.0333885 0.99086577 1.0173014 1.0242958
00000000: d12a 823f 3320 843f 86e0 7f3f d72c 843f
00000010: 1346 843f 61a9 7d3f ef36 823f 201c 833f

block_5.1.bias f4 [8]
-0.014583606 0.031461 0.021563247 0.034311235 0.031824596 -0.028788127 0.033140104 0.031578608
00000000: 14f0 6ebc 40dd 003d 68a5 b03c f089 0c3d
00000010: 825a 023d 14d5 ebbc ebbd 073d 9258 013d

block_5.1.running_mean f4 [8]
0.052347332 0.054904595 -0.08305225 -0.027687395 0.011057853 -0.05001288 0.017339075 -0.06491862
00000000: 286a 563d a4e3 603d 4c17 aabd add0 e2bc
00000010: ff2b 353c 4eda 4cbd ad0a 8e3c 0ef4 84bd

block_5.1.running_var f4 [8]
0.56552756 1.3756895 0.5412479 0.3072135 0.96355414 0.8625049 1.2558557 1.9568653
00000000: 6ac6 103f 9816 b03f 398f 0a3f 164b 9d3e
00000010: 7cab 763f 1fcd 5c3f e1bf a03f 907a fa3f

final_layer.parametrizations.weight.original f4 [1, 48]
-0.037833557 0.16058427 0.06508252 0.013730361 -0.07098101 -0.09079014 0.078146584 0.15460888
0.14296554 0.12964056 0.12927474 0.053472664 0.11386889 -0.06698481 -0.028944427 0.09228057
-0.070212215 0.029402439 0.047198668 -0.070818976 0.016941149 0.018882226 0.06563798 0.071783826
0.07525701 0.09441316 0.15094054 0.07036156 0.0045769145 0.1364617 0.117695734 -0.023906417
-0.055324655 0.04250858 -0.06469109 -0.102807775 -0.0999458 -0.050337132 0.07017141 0.10609371
-0.0116882995 0.13563752 0.088058025 0.053047914 -0.0933463 0.1324313 0.06750455 0.12893367
00000000: 5cf7 1abd 3470 243e fc49 853d 4ff5 603c
00000010: 7e5e 91bd 2ef0 b9bd 510b a03d ca51 1e3e
00000020: 8f65 123e 7fc0 043e 9960 043e 2706 5b3d
00000030: 1834 e93d 552f 89bd dd1c edbc 98fd bc3d
00000040: 6ccb 8fbd 62dd f03c 6453 413d 8a09 91bd
00000050: 2ac8 8a3c e6ae 9a3c 356d 863d 6603 933d
00000060: 5920 9a3d b05b c13d 2890 1a3e b919 903d
00000070: f1f9 953b 9ebc 0b3e 760a f13d 64d7 c3bc
00000080: 1b9c 62bd 7a1d 2e3d c37c 84bd e28c d2bd
00000090: 62b0 ccbd 4f2e 4ebd 07b6 8f3d a947 d93d
000000a0: 4880 3fbc 90e4 0a3e c457 b43d c548 593d
000000b0: 582c bfbd 129c 073e d33f 8a3d 3007 043e
