weights_challenge_1.pt (torch, 261899 bytes, 26 tensors)

block_1.1.weight f4 [8, 1, 1, 64]
0	0x3d836d1d	0.06417296
1	0x38e75cac	0.000110322
2	0xbd00b60a	-0.031423606
3	0x3d1303b7	0.035892215
4	0xbdd276d2	-0.102765694
5	0x3d101ff2	0.035186715
6	0x3bbe03f0	0.005798809
7	0x3de55e71	0.11199654
8	0x3ce1e9ec	0.027577363
9	0xbdb65a6e	-0.08903967
10	0x3c79b3e6	0.015240645
11	0x3e04c5a5	0.1296602
12	0xbd966e6a	-0.073452786
13	0xbcfddd07	-0.030989183
14	0xbd3e61ee	-0.04648011
15	0xbd437b02	-0.04772473
16	0xbd205a58	-0.03914866
17	0x3d0bba63	0.0341133
18	0x3dd97187	0.10617357
19	0xbde6e988	-0.11275011
20	0xbd5d0691	-0.05396134
21	0x3df3be64	0.119015485
22	0xbc7b55e5	-0.015340303
23	0xbdd312a6	-0.10306291
24	0xbdcf06b1	-0.10108698
25	0x3ceb0c4e	0.02869239
26	0x3e06b1fe	0.13153836
27	0xbd0e54c2	-0.0347488
28	0xbd94a955	-0.0725886
29	0xbd14aba2	-0.036296494
30	0x3d94e2dc	0.072698325
31	0x3dfef998	0.1244995
32	0xbce3d1b4	-0.027809955
33	0x3dceee39	0.10104031
34	0x3dd79ea4	0.10528305
35	0x3cf3f9a2	0.02978212
36	0x3dfe029d	0.12402842
37	0xbdc1a5fe	-0.094554886
38	0xbd9e53ee	-0.07730852
39	0xbdbb3c94	-0.09142414
40	0x3d8dfc8f	0.06932937
41	0xbd87fa86	-0.066395804
42	0xbdc859f0	-0.09782779
43	0x3dad0e15	0.084499516
44	0x3d67888a	0.0565267
45	0x3de792a9	0.1130727
46	0x3c7ff112	0.0156214405
47	0xbba6bbaa	-0.0050882893
48	0xbd841fac	-0.064513534
49	0xbdfe7deb	-0.12426361
50	0x3ba4027d	0.0050051794
51	0xbdbcd0a5	-0.09219483
52	0x3d19d233	0.037553977
53	0xbdcb4ce0	-0.09926772
54	0x3d77b921	0.060479287
55	0x3d698435	0.057010848
56	0x3da8eb85	0.08248047
57	0x3bf957b1	0.0076093306
58	0xbc4a05a9	-0.012330451
59	0x3d2b5763	0.041831385
60	0xbe09adad	-0.13445158
61	0xbdaf7ad1	-0.08568347
62	0x3d3ba36e	0.045810156
63	0x3db19f6f	0.08672988
64	0x3daed4ee	0.08536707
65	0x3df73489	0.12070567
66	0xbdc7781d	-0.09739707
67	0x3da52e7f	0.08065509
68	0xbdb9cc91	-0.09072221
69	0x3cf7a0b5	0.030227998
70	0xbdf7ac6c	-0.12093434
71	0xbd299cc5	-0.041409273
72	0xbdf7683b	-0.12080427
73	0x3ced8a7a	0.028996695
74	0xbde4ee80	-0.11178303
75	0xbd0b96e3	-0.034079444
76	0x3cd1d0e1	0.025612297
77	0x3d0d1255	0.03444131
78	0xbd2e9f61	-0.042632464
79	0x3c984c03	0.018590933
80	0x3dfe9faa	0.12432797
81	0x3c326b0d	0.010889781
82	0xbcca5c07	-0.024702085
83	0xbc33948a	-0.010960707
84	0xbd28a68a	-0.04117445
85	0x3d7fb91b	0.06243239
86	0x3dea6a55	0.114460625
87	0xbddd20cc	-0.10797271
88	0x3d1a8cfc	0.03773211
89	0x3db29438	0.08719677
90	0x3dd4ae36	0.103847906
91	0x3c53df09	0.012931594
92	0x3db7ecdc	0.08980724
93	0x3dcd5c57	0.10027378
94	0x3d9f6561	0.07783008
95	0xbdde24c5	-0.10846857
96	0x3d20fb05	0.03930189
97	0x3da24f20	0.07925248
98	0xbc25b543	-0.010114017
99	0xbc7703c6	-0.015076583
100	0xbcbb5499	-0.022867488
101	0x3d0e8d47	0.0348027
102	0x3ca1f1f9	0.019768702
103	0xbdfa5dc3	-0.12224915
104	0x3db8cdc5	0.090236224
105	0xbdca415e	-0.09875749
106	0xbd508b37	-0.050914016
107	0xbcabb240	-0.02095902
108	0x3dd487b5	0.103774466
109	0xbd9d5ef0	-0.076841235
110	0xbdf6a27f	-0.120427124
111	0x3d4b989b	0.049706083
112	0xbd1ba37c	-0.037997708
113	0x3ddf8781	0.10914517
114	0xbd0d82cd	-0.03454857
115	0x3db34ae9	0.08754522
116	0x3de330f0	0.110933185
117	0x3d4ebb98	0.050471872
118	0x3d90f29d	0.07077525
119	0x3d604ed2	0.05476267
120	0xbda5f4b5	-0.08103315
121	0xbce5339f	-0.027978716
122	0x3cfa8019	0.03057866
123	0xbd952e9c	-0.07284281
124	0x3d3e724b	0.046495717
125	0xbd9a488b	-0.07533368
126	0xbcb96325	-0.022630284
127	0xbd955e2f	-0.07293355
128	0xbde67ca6	-0.112542436
129	0xbdca5fc2	-0.098815456
130	0x3ca44b86	0.020055544
131	0x3d0cde93	0.03439195
132	0xbd735b9f	-0.05941355
133	0xbd842aab	-0.06453451
134	0x3dd7e29d	0.1054127
135	0x3cc38046	0.023864876
136	0x3d8dedbc	0.0693011
137	0x3cfdfabc	0.031003349
138	0xbd8f33ce	-0.06992303
139	0xbd570e07	-0.052503612
140	0x3c130119	0.00897243
141	0x3c9c358b	0.0190685
142	0xbe01d8bd	-0.12680335
143	0x3dad8216	0.084720775
144	0x3d843af6	0.064565584
145	0x3c9a70c0	0.018852592
146	0x3da5bdd6	0.08092849
147	0x3dbe25d4	0.09284559
148	0xbdc278c8	-0.094956934
149	0xbb114a07	-0.0022169368
150	0xbdb31d4c	-0.08745822
151	0x3dc6c709	0.09705932
152	0xbdfb9099	-0.12283439
153	0xbdb1c2af	-0.08679711
154	0x3d455bb4	0.048183158
155	0x3c34a4b8	0.0110256
156	0x3d5ab5cb	0.053396028
157	0x3dbeea06	0.0932198
158	0x3d56c97d	0.052438248
159	0x3ca4dd12	0.020124946
160	0xbd98f8b7	-0.074693136
161	0x3d48e76b	0.049048822
162	0xbe019834	-0.12655717
163	0x3c66c0f0	0.014084086
164	0x3c473746	0.012159174
165	0xbd4768d7	-0.048683967
166	0xbd1393e9	-0.03602973
167	0x3d6212cc	0.055193707
168	0xbceb1ea3	-0.028701132
169	0x3de53259	0.11191244
170	0x3de53217	0.111911945
171	0xbdb04de5	-0.08608607
172	0x3dbd0311	0.092291005
173	0xbd119589	-0.035543
174	0x3c068654	0.008210737
175	0xbd45b2d6	-0.048266254
176	0xbdbe1609	-0.092815466
177	0x3deb254b	0.114817224
178	0xbdcae750	-0.099074006
179	0x3d526fbc	0.05137609
180	0x3d55986d	0.052147318
181	0xbd8c2120	-0.068422556
182	0xbd5ca39e	-0.053866975
183	0xbd85e027	-0.06536894
184	0x3dc685df	0.09693503
185	0xbd64b7d8	-0.05583939
186	0xbd00225a	-0.03128276
187	0xbc70c915	-0.014696379
188	0x3c3868af	0.011255427
189	0x3c13b690	0.009015694
190	0x3dc0a2a9	0.09406025
191	0xbdc0b5a2	-0.09409644
192	0x3dfc44d3	0.12317815
193	0x3d61b03c	0.05509971
194	0x3d3f7353	0.04674084
195	0x3c94e16a	0.018173892
196	0x3b4bab71	0.003107753
197	0xbd4c1c37	-0.049831595
198	0xbd792a8c	-0.06083159
199	0xbd8e1055	-0.06936709
200	0xbd7c876a	-0.06165258
201	0x3c4b08c3	0.012392226
202	0x3d256ecd	0.04038887
203	0xbde428f9	-0.111406274
204	0xbd9c0e4a	-0.07619913
205	0x3d8189da	0.06325121
206	0xbdc778f9	-0.097398706
207	0x3dc92c50	0.09822905
208	0xbd7d1153	-0.0617841
209	0x3de638d3	0.11241307
210	0x3d373dba	0.0447366
211	0xbbceb52c	-0.0063082185
212	0x3dd8232e	0.10553585
213	0xbd56c468	-0.0524334
214	0x3d0f0d44	0.03492476
215	0x3c91a1cd	0.017777348
216	0x3d4dec19	0.05027399
217	0x3c060e5c	0.0081821345
218	0xbd3f7662	-0.046743758
219	0xbdaf0c2a	-0.08547242
220	0x3d89d814	0.06730667
221	0x3d517060	0.05113256
222	0xbdc5398f	-0.09630119
223	0x3dd84dbe	0.10561703
224	0x3dd9d268	0.10635835
225	0x3c0d3166	0.008617735
226	0x3c766764	0.015039299
227	0xbc63730f	-0.013882413
228	0x3d868911	0.06569112
229	0xbc9e5186	-0.019325983
230	0x3d93078e	0.07179175
231	0x3d98a1db	0.074527465
232	0x3dac9c7d	0.08428285
233	0x3dd43830	0.103622794
234	0x3d5291e1	0.051408652
235	0x3d7213a8	0.059100777
236	0xbdfab478	-0.12241453
237	0xbc9edf30	-0.019393533
238	0xbba9ac0c	-0.0051779803
239	0xbc69b6bf	-0.0142647615
240	0x3cf54b03	0.029942995
241	0x3c891ffd	0.016738886
242	0x3d847e58	0.06469411
243	0xbc9c598f	-0.019085674
244	0x3d9cae1e	0.07650398
245	0xbd45b3be	-0.04826712
246	0x3cefb159	0.02925937
247	0x3d5dc698	0.054144472
248	0x3d449e09	0.048002277
249	0xbce69e38	-0.028151616
250	0xbdbeeb7b	-0.09322258
251	0xbdb8b236	-0.09018366
252	0xbc8e4eb5	-0.017371515
253	0xbd452c18	-0.048137754
254	0x3a2ecef7	0.00066684134
255	0xbd3217be	-0.043479674

block_1.2.weight f4 [8]
0	0x3f7d256f	0.98885244
1	0x3f7d2a30	0.988925
2	0x3f7d627d	0.98978406
3	0x3f7bd0e4	0.98365617
4	0x3f7fe6d6	0.999616
5	0x3f7e5a1c	0.99356246
6	0x3f7e8610	0.99423313
7	0x3f7cbbba	0.9872395

block_1.2.bias f4 [8]
0	0x3cf0de91	0.029403003
1	0x3ce8bda4	0.02841074
2	0xbd06ad20	-0.03287995
3	0x3cec1747	0.028819693
4	0xbcffc3d0	-0.0312213
5	0xbcb3e1da	-0.02195828
6	0xbcf547a7	-0.029941393
7	0x3d02b6e6	0.031912707

block_1.2.running_mean f4 [8]
0	0x30fc1ef8	1.8344215e-09
1	0xb49d3722	-2.9283643e-07
2	0xb421be18	-1.5063449e-07
3	0xb5311a1c	-6.597563e-07
4	0xb59fc0ab	-1.1902497e-06
5	0x3457cc37	2.0097728e-07
6	0xb52df77f	-6.4807676e-07
7	0x342bb2bb	1.5990638e-07

block_1.2.running_var f4 [8]
0	0x3c722cd5	0.014781197
1	0x3c723033	0.014781999
2	0x3c722cbe	0.014781175
3	0x3c7233e5	0.01478288
4	0x3c7244a5	0.014786874
5	0x3c722e8d	0.014781606
6	0x3c7232aa	0.014782587
7	0x3c722cd5	0.014781197

block_2.0.weight f4 [32, 8, 1, 64]
0	0x3a7efdee	0.00097271695
1	0xbc798411	-0.015229241
2	0xbbc5804f	-0.0060272585
3	0xbd292628	-0.041296154
4	0x3d0ef9c9	0.034906182
5	0xbd1e918e	-0.03871303
6	0x3cc89499	0.02448492
7	0x3d292588	0.04129556
8	0xbbea7c29	-0.0071559143
9	0x3ba7a2f4	0.005115861
10	0xbbd9406a	-0.006629993
11	0x3cdc1cae	0.026869144
12	0xbc039edb	-0.00803348
13	0x3d2df0a1	0.04246581
14	0x3cae20ee	0.021255936
15	0x3ccc2c98	0.024923608
16	0x3d357712	0.044303007
17	0x3cef3077	0.029197915
18	0xbc5b68db	-0.013391699
19	0x3cdd07bb	0.026981225
20	0x3d4c8dc4	0.049939886
21	0x3bbfced1	0.005853512
22	0x3bbc4abf	0.005746215
23	0x3c42db38	0.011893086
24	0x3cf0080f	0.029300718
25	0x3c4c121b	0.012455489
26	0x3c7c74fc	0.015408751
27	0xbcdb98fe	-0.02680635
28	0x3d349342	0.04408575
29	0x3b693c53	0.0035588935
30	0xbcc78748	-0.0243565
31	0x3d01ee8d	0.03172164
32	0x3d03d017	0.03218087
33	0xbcfafe5f	-0.030638872
34	0x3b359db8	0.0027712416
35	0x3d369650	0.044576943
36	0x3d220719	0.03955755
37	0x3c6e2590	0.014535323
38	0xbcdd7f50	-0.027038246
39	0x3d26c866	0.04071846
40	0x3d63aa7f	0.05558252
41	0x3ce508d9	0.02795832
42	0xbc107a8a	-0.008818278
43	0xbd09a243	-0.03360201
44	0xbb887775	-0.004164631
45	0xbc9d7424	-0.01922042
46	0xbc2eb06a	-0.010662178
47	0x3cdabcb9	0.026701318
48	0x3d25d959	0.040490482
49	0x3d14cc50	0.03632766
50	0xbc256f97	-0.010097406
51	0xbbf91b79	-0.007602152
52	0x3cf5a413	0.029985463
53	0xbcfe6931	-0.031056019
54	0xba6d9448	-0.0009062928
55	0x3cfe558b	0.03104665
56	0xbc9ac29d	-0.018891627
57	0x3d363d86	0.044492267
58	0xbc04279f	-0.008066087
59	0x3bcd4ff8	0.0062656365
60	0x3d4c2de3	0.04984845
61	0x3d0fcb5e	0.035106055
62	0xbd051a9d	-0.032496084
63	0x3caa0b56	0.020757359
64	0xbc3b1def	-0.011420711
65	0x3bfa39a0	0.007636264
66	0x3c0a2846	0.0084324535
67	0xbd4736e7	-0.048636343
68	0xbd473eeb	-0.048643988
69	0xbcc7b835	-0.024379829
70	0x3d0861e5	0.033296485
71	0xbce72d73	-0.028219914
72	0x3d0ac864	0.033882514
73	0xbbc1ae66	-0.0059106825
74	0x3ca4c35f	0.020112691
75	0x3c681a3d	0.014166412
76	0xbd0434a3	-0.03227676
77	0x3cb8ec3d	0.022573585
78	0xbca8175e	-0.020518955
79	0xbb2948db	-0.0025830779
80	0xbcc5f0f6	-0.02416275
81	0x3c81adbd	0.015829915
82	0x3b40c384	0.0029413411
83	0x3c3b91d4	0.011448342
84	0x3b5a654f	0.0033324545
85	0xbbdc94e9	-0.0067316187
86	0xbc33d370	-0.010975704
87	0x3d1bc218	0.0380269
88	0xbd23509e	-0.039871804
89	0x3c8f7f2c	0.017516695
90	0xbd21e247	-0.039522436
91	0x3c5cfd03	0.013488057
92	0x3cf5c627	0.030001713
93	0x3c02ff6a	0.007995466
94	0x3aa39a20	0.0012481846
95	0x3d2c9e54	0.04214318
96	0xbcd29e37	-0.025710208
97	0x3d02b096	0.031906687
98	0x3d20283c	0.03910087
99	0x3d0690c7	0.032852914
100	0x3d497d46	0.049191736
101	0xbced8956	-0.028996151
102	0x3d0fb7d3	0.035087418
103	0x3d65ecdf	0.0561341
104	0x3d5f19bf	0.054467913
105	0x3d098709	0.033576045
106	0x3bbafe52	0.005706587
107	0x3ccb726a	0.02483483
108	0x3d27bb71	0.040950242
109	0x3c932a25	0.017964432
110	0xbcfd445a	-0.030916382
111	0x3b4ac542	0.0030940329
112	0x3cfa3819	0.030544328
113	0x3d020d35	0.031750876
114	0x3ce072f2	0.02739856
115	0x3d11b633	0.03557415
116	0xbc6e71c7	-0.014553494
117	0xbc9d7edc	-0.01922553
118	0x3c4327bc	0.011911329
119	0xbc223d4f	-0.009902312
120	0x3c9ba9f8	0.019001946
121	0xbc8bc6a6	-0.017062496
122	0x3d214858	0.039375633
123	0x3d2799a0	0.040917993
124	0x3cd52887	0.026020302
125	0xbcc386a7	-0.023867918
126	0xbce5ca24	-0.02805049
127	0xbd168d52	-0.036755867
128	0x3d317070	0.04332012
129	0x3c298b65	0.010348176
130	0xbd0ffb3d	-0.03515171
131	0x3cf6507a	0.030067671
132	0x3d11fce5	0.03564157
133	0xbc26eca8	-0.010188259
134	0xbd2f703c	-0.042831644
135	0xbcfd9f2f	-0.030959694
136	0x3d0b5990	0.03402096
137	0xbcd9c6cb	-0.02658405
138	0xbd690a9f	-0.056894895
139	0xbc9f10f2	-0.01941726
140	0xbd6be337	-0.057589736
141	0x3bb973db	0.005659563
142	0xbb2215af	-0.0024732163
143	0xbc5b80a4	-0.0133973695
144	0x3bab9876	0.0052366806
145	0xbc621d36	-0.01380091
146	0xbcf993e1	-0.030466022
147	0x3ce15e95	0.02751092
148	0x3c215235	0.00984626
149	0x3cb84acb	0.022496602
150	0xbcf56901	-0.029957296
151	0xbc2a95d3	-0.010411697
152	0xbc4afe15	-0.012389679
153	0xbd0ce726	-0.034400128
154	0x3ced2a54	0.028950848
155	0xbb341c47	-0.0027482675
156	0x3be2a24e	0.006916321
157	0xbd0cfa42	-0.034418352
158	0xbc761058	-0.015018545
159	0xbd1898d5	-0.037255127
160	0xbcaed73d	-0.021342868
161	0xbd0ac742	-0.033881433
162	0x3c1688ac	0.009187859
163	0x3c54264c	0.012948584
164	0xbbba2e83	-0.005681814
165	0x3d246e67	0.04014435
166	0x3d0b2fee	0.033981256
167	0x3cdfb0a0	0.027305901
168	0xbc41acc0	-0.011820972
169	0xbc9d5c0c	-0.01920893
170	0xbd14cb0c	-0.036326453
171	0xba2daa72	-0.00066248246
172	0x3d055e63	0.032560717
173	0x3ccc2571	0.024920197
174	0x3c9d5857	0.019207163
175	0x3c9edb7f	0.019391773
176	0xbcc88cca	-0.024481196
177	0x3d10bd5d	0.03533684
178	0x3cbd4aa7	0.023106886
179	0x3d0d2683	0.034460556
180	0x3d09d230	0.033647716
181	0x3ce1e4a5	0.027574847
182	0xbbadc1fa	-0.005302665
183	0x3d19da30	0.037561595
184	0xbd2f9a75	-0.04287191
185	0x3cc51e4c	0.024062298
186	0xbc542f92	-0.012950795
187	0xbcdc741a	-0.02691083
188	0xbc0a6f4e	-0.008449389
189	0xbd09ffcc	-0.033691213
190	0xbd230484	-0.03979923
191	0xbd2e6750	-0.042578995
192	0xbc4ccc64	-0.012499902
193	0xbd472a47	-0.048624303
194	0x3d0971f1	0.03355593
195	0x3c51e91a	0.012811923
196	0xbd38d0ed	-0.045121122
197	0xbd4d832e	-0.05017393
198	0xbbf23ab2	-0.007392251
199	0xbd30cbfe	-0.043163292
200	0xbd321af0	-0.04348272
201	0x3b403bc2	0.0029332493
202	0xbd356e2e	-0.04429453
203	0x3ba85293	0.0051367967
204	0xbca8f879	-0.020626293
205	0xbc8281b7	-0.015930993
206	0x3cd7747a	0.026300658
207	0x3b2b171f	0.002610631
208	0xbce70fc4	-0.02820576
209	0x3c90daa1	0.017682375
210	0x3c5c8095	0.013458391
211	0x3ceda670	0.029010028
212	0xbc8e13ea	-0.01734348
213	0x3d118541	0.03552747
214	0xbba41060	-0.005006835
215	0xbcbcb8ce	-0.02303734
216	0x3ce5398b	0.02798154
217	0x3cc05b0b	0.023480913
218	0xbcc7ae7b	-0.024375191
219	0xbca441df	-0.020050941
220	0x3ce64c57	0.028112574
221	0x3d23c413	0.039981913
222	0xbbb8cd50	-0.0056397095
223	0xbcf3f1af	-0.02977833
224	0x3b6edd84	0.0036447952
225	0xbc9b65f9	-0.018969523
226	0xbad0e3df	-0.0015937052
227	0xbcff0809	-0.031131761
228	0x3cbebe76	0.023284178
229	0xbc54f809	-0.012998589
230	0x3c0d8a9f	0.008639007
231	0xbcaf9b46	-0.021436345
232	0x3d03b1b7	0.032151904
233	0xbc663432	-0.01405053
234	0x3bba6aa0	0.00568898
235	0x3d10ab46	0.03531959
236	0xbc271267	-0.010197259
237	0xbca25e6d	-0.019820416
238	0x3d180dff	0.037122723
239	0x3c62a6e4	0.013833735
240	0x3d2bb5d3	0.041921448
241	0xbbd4579d	-0.006480171
242	0x3caf88c0	0.021427512
243	0xbbb9251a	-0.005650175
244	0x3cbce923	0.023060387
245	0x3c87f3c9	0.016595738
246	0x3d44652f	0.04794806
247	0x3ca1aad1	0.019734772
248	0x3cf80608	0.030276313
249	0x3c97dbe1	0.018537464
250	0x3c568427	0.013093031
251	0x3c1d39dd	0.009596315
252	0xbc502d3a	-0.012706095
253	0xbd2cfd07	-0.042233493
254	0xbcf023cc	-0.029313944
255	0x3ba1d91f	0.004939213

block_2.1.weight f4 [32]
0	0x3f80c802	1.0061038
1	0x3f813ce8	1.0096712
2	0x3f7f260a	0.9966742
3	0x3f81a2a1	1.0127755
4	0x3f814c5d	1.0101429
5	0x3f81246d	1.0089241
6	0x3f806b6c	1.0032783
7	0x3f819011	1.012209
8	0x3f8140ec	1.0097938
9	0x3f81f623	1.015324
10	0x3f818865	1.0119749
11	0x3f80abe3	1.0052456
12	0x3f82169a	1.0163147
13	0x3f8194f8	1.0123587
14	0x3f81a60b	1.0128797
15	0x3f8192a3	1.0122875
16	0x3f8228f4	1.0168748
17	0x3f7f8622	0.99814045
18	0x3f80dfb7	1.0068272
19	0x3f8295cc	1.0201964
20	0x3f7f955c	0.9983728
21	0x3f803766	1.0016906
22	0x3f81c532	1.0138304
23	0x3f80d167	1.0063905
24	0x3f7e3609	0.993012
25	0x3f7f5898	0.9974456
26	0x3f820928	1.0159044
27	0x3f81ea25	1.014958
28	0x3f8130f2	1.0093062
29	0x3f815dbb	1.0106729
30	0x3f7eb80d	0.9949959
31	0x3f8043a4	1.0020642

block_2.1.bias f4 [32]
0	0x3ad294ed	0.0016066112
1	0xbae5b003	-0.0017523769
2	0x3c4a5814	0.012350101
3	0xbb3d1c36	-0.0028855926
4	0xbc53bb7a	-0.012923116
5	0xbc6da740	-0.014505208
6	0xbb5fe59a	-0.0034163953
7	0x3b1efb95	0.0024258841
8	0x3adbc095	0.0016765768
9	0x3b1caa13	0.0023905083
10	0xbc93918a	-0.018013734
11	0xbc45f2ee	-0.012081845
12	0xbbcbd7e6	-0.0062208055
13	0xbb187416	-0.0023262552
14	0xbc1fb688	-0.009748109
15	0xbc660d62	-0.014041277
16	0xbc87ddbd	-0.016585225
17	0xbb26be87	-0.0025443153
18	0x3b6c3520	0.0036042407
19	0xbbf44a56	-0.0074551506
20	0xbb827c24	-0.003982084
21	0xbba80420	-0.005127445
22	0xbbca7332	-0.006178283
23	0xbc97a27c	-0.018510096
24	0xbc64bb97	-0.0139607405
25	0xbb7d0f91	-0.0038614015
26	0x3c1175e8	0.008878209
27	0x3c143f15	0.009048243
28	0x3b23bd61	0.0024984705
29	0xbaedc1fd	-0.0018139478
30	0x3c8814aa	0.016611416
31	0xbbc38fff	-0.0059680934

block_2.1.running_mean f4 [32]
0	0x3d0526c3	0.03250767
1	0xbc713b89	-0.014723667
2	0xbb14e3fb	-0.0022718895
3	0xbad6a74d	-0.0016376764
4	0xbd2339e4	-0.03985013
5	0xbc9d3e38	-0.019194707
6	0xbcb21dbe	-0.021742698
7	0xbd8b0545	-0.067881145
8	0xbd17f9ad	-0.037103344
9	0x3cdc64c7	0.026903523
10	0xbcf10a9f	-0.02942401
11	0xbc0e27f2	-0.008676516
12	0x3cb27fda	0.02178948
13	0xbd93c106	-0.07214551
14	0x3d8b626f	0.06805884
15	0xbb4f9201	-0.0031672718
16	0xbb8ccd79	-0.004296955
17	0x3d09e7d1	0.033668343
18	0x3b784794	0.003788446
19	0x3d5740aa	0.052551903
20	0xbc82afee	-0.01595303
21	0x3a2493e0	0.00062781386
22	0xbb9b85ec	-0.0047461893
23	0xbc04f93e	-0.008116065
24	0xbd0ab6af	-0.033865627
25	0x3c4baece	0.012431813
26	0x3d165a86	0.036707424
27	0x3d10189d	0.035179723
28	0xbd0badc8	-0.034101278
29	0xbb9bda1f	-0.0047562267
30	0x3cae4114	0.021271266
31	0xbcebd43b	-0.028787723

block_2.1.running_var f4 [32]
0	0x3e0570c2	0.13031295
1	0x3e554cf7	0.20830141
2	0x3e46e620	0.19423723
3	0x3eaa2201	0.33229068
4	0x3d2e9b48	0.042628556
5	0x3e66ed74	0.22551519
6	0x3df45c4d	0.119316675
7	0x3e08e9b2	0.13370398
8	0x3e35db64	0.17759472
9	0x3e1433ad	0.14472838
10	0x3e345ae4	0.17612797
11	0x3e083818	0.13302648
12	0x3e6f9018	0.23394811
13	0x3d879481	0.06620122
14	0x3db0637b	0.086127244
15	0x3e794165	0.24341352
16	0x3e2db228	0.16962492
17	0x3e41d7aa	0.18929926
18	0x3e328bc2	0.17436126
19	0x3e4446ea	0.19167677
20	0x3dcf619d	0.1012604
21	0x3e2005fc	0.15627283
22	0x3e1820ea	0.14856306
23	0x3e624b8d	0.22099133
24	0x3dbf3c81	0.09337712
25	0x3e300b83	0.17191891
26	0x3df01c7d	0.11724184
27	0x3e56ca70	0.20975661
28	0x3d838665	0.06422118
29	0x3e2b8dcf	0.16753314
30	0x3dc3058b	0.095225416
31	0x3e5bf62a	0.21480623

block_3.0.parametrizations.weight.original f4 [64, 1, 129, 1]
0	0x3c97f1b7	0.018547876
1	0x3cdb55d2	0.02677432
2	0x3b68a0c2	0.003549621
3	0x3bfaa4bd	0.007649033
4	0x3c788272	0.015167819
5	0x3cec3764	0.028835006
6	0x3cc6138f	0.024179248
7	0x3b417a6f	0.002952244
8	0xbb99fb1e	-0.004699125
9	0x3a772565	0.00094278745
10	0x3ce94c64	0.028478809
11	0x3c81db75	0.015851716
12	0xbb34a1e3	-0.0027562312
13	0xbc9270d7	-0.017876072
14	0x3c2a589f	0.0103971055
15	0x3d0d7882	0.034538753
16	0x3cd3b699	0.025843905
17	0x3bd45972	0.0064803893
18	0x3c8f6bb2	0.017507408
19	0x3ce8ba0b	0.028409025
20	0xbb45d2c1	-0.0030185434
21	0xbbe5e10b	-0.0070153526
22	0xbbd63725	-0.0065373355
23	0x3c49c332	0.012314605
24	0x3a043e56	0.0005044689
25	0x3ca66c4b	0.02031531
26	0xbb2832e7	-0.0025665106
27	0x3c4f8f26	0.012668407
28	0x3c09081f	0.008363753
29	0xbc8040d8	-0.01565592
30	0x3cee7aab	0.029111227
31	0xbbb9707b	-0.0056591607
32	0xbc9343e0	-0.017976701
33	0xbb681536	-0.0035413033
34	0x3b9567f2	0.0045595104
35	0x3c878acf	0.016545681
36	0x3c2e15c0	0.010625303
37	0x3cb4b153	0.022057211
38	0xbb81710c	-0.003950244
39	0x3cd8ccef	0.026464907
40	0x3c004576	0.007829061
41	0xbca28bef	-0.019842116
42	0x3ce05279	0.027383076
43	0x3c1d9032	0.009616898
44	0x3b7e4768	0.0038799886
45	0x3b5340a0	0.0032234564
46	0x3ba69fc5	0.005084964
47	0xbbaf1b97	-0.005343865
48	0x3cf84784	0.030307539
49	0x3cc39b57	0.023877783
50	0x3cd550e6	0.026039552
51	0xbb2fcb56	-0.0026824079
52	0xbcafdae7	-0.021466685
53	0xbaad678d	-0.0013229713
54	0x3cf90e4b	0.030402323
55	0xbc431cf6	-0.01190876
56	0xbad93999	-0.0016572952
57	0x3ca4bddc	0.020110063
58	0xbbd010af	-0.006349645
59	0x3c8e8660	0.01739806
60	0x3c839aff	0.016065119
61	0xbabb848e	-0.0014306472
62	0x3b706eea	0.0036687204
63	0xbc75cbeb	-0.015002231
64	0x3c893885	0.016750583
65	0x3cc272c0	0.023736358
66	0x3d0b5647	0.034017827
67	0xbb180320	-0.0023195222
68	0x3cb1a23e	0.021683808
69	0x3c9b09c9	0.018925564
70	0x3c168e50	0.009189203
71	0xbc4d6577	-0.012536398
72	0x3bf83e4d	0.007575786
73	0x3d122cf0	0.035687387
74	0x3c293780	0.010328174
75	0xbbdc4759	-0.0067223725
76	0x3ccc6a7b	0.024953118
77	0x3cdba5a9	0.026812391
78	0x3c2c516e	0.010517461
79	0x3c23e6f4	0.010003794
80	0x3c1318c7	0.008978075
81	0x3cbd30f4	0.023094632
82	0x3c6d135f	0.01446995
83	0x3cdaf9b2	0.026730392
84	0x3cae7ac0	0.021298766
85	0x3cacdf2e	0.021102514
86	0x3c427252	0.011868076
87	0x3c2bde3a	0.010489995
88	0xbc60e913	-0.013727444
89	0x3d0d16f1	0.034445707
90	0xbbc91929	-0.0061370325
91	0x3ce5481b	0.027988484
92	0x3c8dafbb	0.017295709
93	0x3caf04a4	0.021364518
94	0xbc478b1b	-0.012179161
95	0x3d02b8d7	0.03191456
96	0xbb81f1b0	-0.003965579
97	0x3cacd329	0.021096783
98	0x3c2252c4	0.009907428
99	0x3b97c012	0.004631051
100	0x3bc325ce	0.0059554344
101	0xbb431e6c	-0.0029772772
102	0x3ae5e4a5	0.0017539455
103	0xbc778a68	-0.015108682
104	0xbc89d9a0	-0.016827404
105	0x3c8eef92	0.01744822
106	0xbae82c8c	-0.0017713471
107	0xbc866e79	-0.0164101
108	0xbbbdd4bb	-0.0057931817
109	0x3ca8c88c	0.02060344
110	0xbc8b44fd	-0.01700067
111	0x3cdf158c	0.027231954
112	0x3bdc399f	0.006720736
113	0x3d0f7863	0.03502692
114	0x3cfb934a	0.030709881
115	0x3cce0c67	0.025152398
116	0x3d0d2d19	0.034466837
117	0x3b73003c	0.0037078997
118	0x3ca17e62	0.019713584
119	0xbc453fa2	-0.012039097
120	0x3b15d16a	0.0022860416
121	0x3cfa237d	0.0305345
122	0xbc7339ad	-0.014845294
123	0x3b0f1586	0.0021832897
124	0x3b9f119e	0.004854395
125	0xbc2dd820	-0.01061061
126	0xbcb823d4	-0.022478022
127	0xbbe1e6bc	-0.0068939608
128	0x3bc09fce	0.005878425
129	0x3b562b5a	0.0032679648
130	0x3ce15820	0.027507842
131	0x3cd61729	0.02613409
132	0x3c28583a	0.010274941
133	0x3cdd886b	0.027042588
134	0x3c17d901	0.009268046
135	0x3c7c3a9f	0.015394836
136	0xbc0d4e8b	-0.008624683
137	0x3c69c43b	0.014267976
138	0xbbd49369	-0.006487299
139	0x3d22aa7c	0.039713368
140	0x3c941c59	0.018079923
141	0x3c01afb6	0.007915428
142	0xbb895e66	-0.0041921614
143	0x3afcde59	0.0019292339
144	0x3d162300	0.036654472
145	0xbc0dacbf	-0.008647143
146	0x390a42f4	0.00013185648
147	0xbbb2bcef	-0.0054546515
148	0x3d0f1f1a	0.03494177
149	0x3cfb0035	0.030639747
150	0x3cfa05ce	0.030520346
151	0x3d12a8cc	0.03580551
152	0x3ca8abff	0.020589827
153	0x3c7065ac	0.014672678
154	0x3c5867b6	0.01320832
155	0x3c0224cd	0.007943344
156	0x3c4bcc2f	0.012438818
157	0x3caed61f	0.021342335
158	0x3ca21f5b	0.019790342
159	0x3d0f33e6	0.034961604
160	0x3d23dc69	0.04000512
161	0x3c6ebdd9	0.01457163
162	0x3c4f1c83	0.012641075
163	0x3d37a9f4	0.044839814
164	0x3c9f8370	0.019471854
165	0x3d241ba0	0.040065408
166	0x3d24b617	0.040212717
167	0x3cc553ba	0.024087775
168	0x3d36a2c2	0.04458881
169	0x3cca2632	0.024676416
170	0x3b727aa7	0.0036999376
171	0xbb26d0ad	-0.002545397
172	0x3c91e8e8	0.017811254
173	0x3c161e68	0.009162523
174	0x3cc3e4e2	0.02391285
175	0x3ad67a50	0.0016363356
176	0x3c920de4	0.01782889
177	0xbc02f51c	-0.007993009
178	0x3cc6237a	0.024186838
179	0x3a6bb38e	0.00089912943
180	0xbc239e6c	-0.009986501
181	0x3d1ca3b8	0.038242072
182	0x3c0be518	0.008538507
183	0xbae4b765	-0.0017449675
184	0xbccac2a8	-0.024751022
185	0x3c68e154	0.014213879
186	0x3d0922c3	0.033480417
187	0x3d1565a6	0.036473893
188	0x3c9d4588	0.019198194
189	0x3d20ad92	0.03922803
190	0x3ae287ec	0.001728294
191	0x3c984be3	0.018590873
192	0x3d2c999d	0.042138685
193	0x3d144d74	0.036206678
194	0xbc1aab6b	-0.009440283
195	0xbce9f9f6	-0.028561573
196	0x3c04a442	0.008095803
197	0x3cf08d7e	0.029364344
198	0x3b909129	0.0044118357
199	0xbbcc29f9	-0.0062305895
200	0x3cc858f4	0.024456479
201	0xbc9bbbbd	-0.019010419
202	0xbc2e23f6	-0.010628691
203	0xbc54142d	-0.012944263
204	0xbbaee7aa	-0.005337675
205	0x3b9ad39b	0.0047249324
206	0x3d1d3526	0.038380764
207	0x3d23003c	0.039795145
208	0x3d0ca936	0.03434106
209	0xbbfa4753	-0.007637897
210	0xbc84724d	-0.016167784
211	0x3c900195	0.01757888
212	0x3bfa4918	0.007638108
213	0x3c77651b	0.015099789
214	0xbb7da4f3	-0.0038703054
215	0x3d45de01	0.048307423
216	0x3c138355	0.00900348
217	0x3c926fb3	0.017875528
218	0x3caa0022	0.020752016
219	0xbab9171c	-0.0014121267
220	0xbb2fcc27	-0.0026824565
221	0x3d1b1ae0	0.037867427
222	0x3c018b3b	0.00790673
223	0x3d132719	0.03592596
224	0x3bed4078	0.0072403513
225	0xbc0333a8	-0.008007921
226	0x3d234043	0.039856207
227	0xbb3f31a3	-0.0029173873
228	0x3b74ef9b	0.0037374261
229	0xba7a788e	-0.0009554707
230	0x3cadbf98	0.021209523
231	0x3cc1f901	0.023678305
232	0xbb9fb941	-0.004874379
233	0x3bb9afa5	0.0056666904
234	0x3c1becfe	0.009516953
235	0xbc37a526	-0.011208808
236	0x3ca6d43f	0.020364879
237	0x3c7d9e98	0.015479706
238	0x3d021feb	0.03176872
239	0x3cbfefa0	0.023429692
240	0x3d09d732	0.033652492
241	0xbb2ecdfc	-0.002667307
242	0x3c7a4417	0.015275023
243	0x3cc463b3	0.023973322
244	0x3c84af52	0.01619688
245	0x3cc0f94a	0.02355637
246	0x3d363105	0.044480342
247	0xbc35a1b8	-0.01108592
248	0x3b1e90e4	0.0024195248
249	0x3cdcf0a9	0.026970224
250	0x3c8bedba	0.01708113
251	0xba8ab36c	-0.0010582036
252	0x3d3f84ea	0.046757616
253	0xbbb91b97	-0.005649041
254	0x3bad4511	0.0052877744
255	0x3bf0b040	0.0073452294

block_3.1.weight f4 [64]
0	0x3f7e8890	0.9942713
1	0x3f7ee8f3	0.995742
2	0x3f7c9004	0.9865725
3	0x3f7f0e07	0.9963078
4	0x3f7a5482	0.977852
5	0x3f7dfaf1	0.9921103
6	0x3f7d95f5	0.9905694
7	0x3f7f060d	0.9961861
8	0x3f806a77	1.003249
9	0x3f83b060	1.02882
10	0x3f7fdffd	0.99951154
11	0x3f7d260b	0.98886174
12	0x3f7f1650	0.9964342
13	0x3f7db658	0.9910636
14	0x3f833b47	1.0252465
15	0x3f7f5306	0.9973606
16	0x3f7fcfd7	0.99926513
17	0x3f7d7e52	0.99020875
18	0x3f7c070f	0.9844827
19	0x3f801b18	1.0008268
20	0x3f80d795	1.006579
21	0x3f821de5	1.0165373
22	0x3f8068a9	1.003194
23	0x3f8045fe	1.002136
24	0x3f7d8cda	0.9904305
25	0x3f7a1d06	0.97700536
26	0x3f7ff21b	0.999788
27	0x3f818b10	1.0120564
28	0x3f826102	1.0185854
29	0x3f8252a0	1.0181465
30	0x3f7cca20	0.9874592
31	0x3f7f09da	0.9962441
32	0x3f80efec	1.0073218
33	0x3f7c6cec	0.986037
34	0x3f81016f	1.0078562
35	0x3f7be269	0.9839235
36	0x3f7d0aa5	0.9884437
37	0x3f7fa270	0.99857235
38	0x3f80f6ef	1.0075358
39	0x3f7b0b5c	0.9806421
40	0x3f7e7b13	0.99406546
41	0x3f7f71c9	0.99783
42	0x3f79736d	0.9744175
43	0x3f7d956d	0.9905613
44	0x3f7f415b	0.997091
45	0x3f7bb0b2	0.9831649
46	0x3f8027fa	1.00122
47	0x3f7c21e0	0.9848919
48	0x3f8048eb	1.0022253
49	0x3f7aa257	0.9790396
50	0x3f7a3c8d	0.97748643
51	0x3f800b1f	1.0003394
52	0x3f8039df	1.0017661
53	0x3f7ded19	0.9918991
54	0x3f7c91d9	0.98660046
55	0x3f7bdea7	0.98386616
56	0x3f8238c7	1.0173577
57	0x3f7dce69	0.9914308
58	0x3f803aea	1.0017979
59	0x3f7c5ecf	0.98582166
60	0x3f80bd7f	1.005783
61	0x3f7f98dd	0.99842626
62	0x3f80f6fb	1.0075372
63	0x3f7ce9e9	0.9879442

block_3.1.bias f4 [64]
0	0x3d0624a2	0.03274978
1	0x3d10227b	0.035189133
2	0x3d178a6f	0.036997255
3	0x3cf39d99	0.029738234
4	0x3b7a8a94	0.0038229572
5	0xbc9bda1f	-0.019024907
6	0xbccbd2c2	-0.02488077
7	0x3b64f70d	0.0034937293
8	0x3d03ccad	0.032177616
9	0x3d0719c4	0.032983556
10	0x3d09e5c4	0.033666387
11	0x3c611ecc	0.013740253
12	0x3d0a7509	0.03380302
13	0x3d165daa	0.03671042
14	0x3d11fad6	0.035639606
15	0xbbcde4de	-0.0062833866
16	0xbc78cbcf	-0.0151853105
17	0x3d0ad276	0.033892117
18	0x3c900ada	0.0175833
19	0x3bf76c9d	0.0075507895
20	0x3d0f4feb	0.034988325
21	0x3d0929be	0.033487074
22	0x3caa1e2e	0.020766344
23	0xbbcb9f54	-0.0062140618
24	0x3c8a19b4	0.01685796
25	0x3d0ce7de	0.034400813
26	0x3d12f2ef	0.03587621
27	0x3d17f07f	0.03709459
28	0x3c1dbd22	0.009627612
29	0x3cff839b	0.031190684
30	0xbb801623	-0.003908889
31	0x3d1307b6	0.035896026
32	0x3d10d17d	0.035356034
33	0x3cd4bbcb	0.025968453
34	0x3d148f5c	0.03626953
35	0x3d1dc4be	0.038517706
36	0x3c69f162	0.014278742
37	0x3cf8f2a0	0.03038913
38	0x3d22ad6e	0.039716177
39	0x3ca6a8f3	0.020344233
40	0x3c575cee	0.013144715
41	0x3d128e3a	0.03578017
42	0x3ce4e2d6	0.027940195
43	0x3bd29e2d	0.0064275474
44	0x3cdf2132	0.027237508
45	0x3bec9eda	0.007221085
46	0x3d0d6833	0.0345232
47	0xbcb8c585	-0.022555122
48	0x3d16528b	0.036699813
49	0xbc215edd	-0.009849277
50	0xbc14b7d0	-0.009077027
51	0xbb911096	-0.004427026
52	0x3b982137	0.0046426314
53	0x3cc85f0c	0.024459384
54	0x3c247b7e	0.010039208
55	0xbc975b04	-0.018476017
56	0x3d118a45	0.035532255
57	0x3cb3ed00	0.021963596
58	0x3ce8ccfc	0.028418057
59	0xbcb02777	-0.021503193
60	0x3d0943d4	0.03351195
61	0x3d0a5818	0.03377542
62	0x3d0ce613	0.034399103
63	0x3ce5acf9	0.028036581

block_3.1.running_mean f4 [64]
0	0x39f3d5da	0.00046507904
1	0xb9acebfb	-0.00032982216
2	0x3b03db69	0.0020119792
3	0xba9b2ccf	-0.0011838916
4	0xbb167cc8	-0.002296256
5	0xb9cc9fe6	-0.00039029046
6	0x3b1a3a54	0.0023533301
7	0x3a5cfb66	0.0008429795
8	0x3b8772f0	0.0041335747
9	0x3baf7512	0.005354532
10	0x3b45ba8e	0.003017101
11	0x3a5eeac1	0.0008503609
12	0x3ac976e5	0.0015370516
13	0x3a580ba3	0.000824148
14	0x3a334540	0.0006838627
15	0xba0b75fd	-0.0005320011
16	0xba816656	-0.0009872417
17	0xb967e5da	-0.00022115503
18	0xba6c5968	-0.0009016008
19	0x3919c79c	0.00014665577
20	0x3bf4b588	0.0074679293
21	0x3bc927c8	0.0061387755
22	0x3b5d7cc2	0.0033796285
23	0x3b3d4906	0.0028882637
24	0x3b2cd0c5	0.0026369554
25	0x39cb47bc	0.00038772624
26	0x3ad5710a	0.0016284299
27	0x3b7c0753	0.0038456514
28	0xbb4364b8	-0.0029814672
29	0xbb9754b4	-0.0046182517
30	0xb9204c77	-0.00015287274
31	0x3b16ae4f	0.002299208
32	0x3ba92018	0.0051612966
33	0x3bb30330	0.0054630265
34	0xb99b47c8	-0.00029617385
35	0x39e8d5fc	0.0004440992
36	0xba8e96a0	-0.001087863
37	0x39b65d67	0.00034783335
38	0x3ac166ec	0.0014755405
39	0xbb10acca	-0.0022075647
40	0xba76c1f5	-0.0009413057
41	0x3ace9772	0.0015761687
42	0xb92bb358	-0.00016374642
43	0xba6aca5d	-0.0008956546
44	0x3ab309ae	0.0013659501
45	0xbade18c3	-0.0016944635
46	0x3a9f277e	0.0012142507
47	0xb9d06e6b	-0.0003975512
48	0x3b487412	0.0030586761
49	0xb9ed84c2	-0.00045303075
50	0xb9c5408a	-0.00037622853
51	0xbb54efda	-0.0032491595
52	0x3b9e2c8c	0.0048270877
53	0xb8279daa	-3.996274e-05
54	0x3b0a39b2	0.0021091518
55	0xbb57234e	-0.003282744
56	0x3a4a751a	0.0007723138
57	0xba03824e	-0.00050166703
58	0x3a619d3a	0.00086064974
59	0x3a48378c	0.00076376717
60	0x3b9c5656	0.0047710342
61	0x3bac4c0d	0.0052580894
62	0x3b0608d6	0.0020452044
63	0x3a87ac14	0.0010350966

block_3.1.running_var f4 [64]
0	0x3d231a57	0.03982004
1	0x3d39c6b0	0.0453555
2	0x3cf7d0f7	0.03025101
3	0x3cd84159	0.026398348
4	0x3ca7c374	0.020478942
5	0x3cc68869	0.024234967
6	0x3d12dd40	0.03585553
7	0x3cf1aa8e	0.029500272
8	0x3d9d72b6	0.07687895
9	0x3da9db99	0.08293838
10	0x3cf50fbd	0.029914731
11	0x3d107551	0.03526813
12	0x3d0979e1	0.0335635
13	0x3d0f067e	0.0349183
14	0x3d299ab5	0.041407306
15	0x3d4f551e	0.050618283
16	0x3d28ff05	0.04125883
17	0x3d164d9f	0.03669512
18	0x3cc6caeb	0.02426668
19	0x3cfd8074	0.03094504
20	0x3d155b23	0.036463868
21	0x3cf28c15	0.029607812
22	0x3d17ca1d	0.037057985
23	0x3cbd24cf	0.02308884
24	0x3cd7a904	0.02632571
25	0x3cee5bd2	0.029096518
26	0x3d631a7a	0.055445172
27	0x3da81e82	0.08208944
28	0x3d6e8cc4	0.058239713
29	0x3d7065ba	0.058690764
30	0x3d0034c7	0.031300332
31	0x3d04c2d2	0.032412358
32	0x3d314517	0.04327878
33	0x3d067d0f	0.03283411
34	0x3cd9857c	0.026552908
35	0x3ca1fd46	0.01977409
36	0x3d24725e	0.04014813
37	0x3ca53859	0.02016847
38	0x3d88cb12	0.066793576
39	0x3d0ec132	0.034852214
40	0x3ccbf9ea	0.024899442
41	0x3d2d5490	0.042316973
42	0x3cc1a1e3	0.023636764
43	0x3d1cd2a6	0.038286828
44	0x3ccfd6e8	0.02537103
45	0x3cd0cfa6	0.02548964
46	0x3d0f5ddb	0.035001617
47	0x3cf14b67	0.0294549
48	0x3ccc0a4e	0.024907257
49	0x3cc8456e	0.02444717
50	0x3c9760cf	0.01847878
51	0x3d2d93d8	0.042377323
52	0x3d780033	0.060547065
53	0x3ce3223d	0.027726287
54	0x3d20f2ed	0.039294172
55	0x3cd347c8	0.025791064
56	0x3d85c072	0.06530847
57	0x3d2e0ae8	0.04249087
58	0x3ce88204	0.028382309
59	0x3d096f9f	0.033553716
60	0x3cf26a52	0.029591713
61	0x3cda3916	0.026638549
62	0x3d0f1c5f	0.034939166
63	0x3cc5f9f1	0.024167033

block_4.0.weight f4 [32, 64, 1, 16]
0	0xbca22313	-0.019792115
1	0xbcb344cb	-0.021883389
2	0xbc45343f	-0.012036382
3	0xbccdd3d1	-0.025125416
4	0x3c99fc64	0.018797107
5	0xbcc99466	-0.024606895
6	0x3ca2fee8	0.01989694
7	0x3c0dc501	0.008652926
8	0xbca621fe	-0.02027988
9	0xbca88348	-0.020570412
10	0x3c071ecf	0.008247091
11	0xbb6d22b7	-0.0036184022
12	0x3c838c38	0.016058072
13	0xbc1feef5	-0.009761562
14	0xbcd46129	-0.025925236
15	0x3d00f155	0.031480152
16	0x3c0a8045	0.008453433
17	0xbb886627	-0.004162568
18	0xbd21692c	-0.03940694
19	0xbd1ef4c6	-0.038807653
20	0x3b281207	0.002564551
21	0x3cd9cd73	0.026587224
22	0xbcc08ad4	-0.023503698
23	0x3c46d7ff	0.012136458
24	0xbc12d777	-0.008962504
25	0xba959ccb	-0.0011414526
26	0xbc518e96	-0.012790343
27	0xbcc96688	-0.024585024
28	0x3c6982f7	0.014252416
29	0x39d4e2d4	0.0004060479
30	0x3bbf0751	0.0058297296
31	0x3cb8e932	0.022572134
32	0xbcad6daa	-0.021170456
33	0xbbec3576	-0.0072085215
34	0x3c5a82e3	0.01333687
35	0x3b8a5074	0.0042210165
36	0x3b8fc9b1	0.004388057
37	0x3ceb1e89	0.028701084
38	0x3b52f26c	0.0032187952
39	0x3bd2ceb3	0.006433332
40	0x3a9f7020	0.0012164153
41	0x3c039c1f	0.008032828
42	0xbc71e948	-0.014765091
43	0x3c113293	0.0088621555
44	0x3c4310c6	0.011905855
45	0xbcbbc7da	-0.022922445
46	0xbc0453de	-0.008076636
47	0xbcd02c73	-0.02541182
48	0x3cc2a4af	0.023760168
49	0xbc12d04a	-0.008960793
50	0xbb333922	-0.0027347286
51	0x3c7cd21a	0.0154309515
52	0xbc4d1462	-0.012517067
53	0x3b78ccfd	0.003796398
54	0x3d03dbdd	0.0321921
55	0xbc1247d4	-0.008928258
56	0x3c17321c	0.009228256
57	0x3a2e6283	0.00066522526
58	0x3d29617a	0.041352727
59	0xbc70a781	-0.014688374
60	0x3cc06d7b	0.023489704
61	0x3cc1e659	0.023669409
62	0x3affa4e6	0.00195041
63	0x3cc96ceb	0.024588069
64	0xbd29b9ac	-0.041436836
65	0xbcbfdd03	-0.023420816
66	0x3c8fcb36	0.017552953
67	0xbbeda683	-0.0072525158
68	0xbc958eb4	-0.018256523
69	0xbc2018dc	-0.009771552
70	0xbccdfe72	-0.025145743
71	0xbbd23b61	-0.00641577
72	0xbbe93335	-0.0071167
73	0xbcecb652	-0.02889553
74	0xbc09a79d	-0.0084017785
75	0x3c02f4a7	0.0079929
76	0x3c6cf39d	0.014462379
77	0xbd1cf767	-0.03832188
78	0x3c66e17c	0.014091846
79	0x3bfedc85	0.007777753
80	0xbc0ddeb4	-0.008659054
81	0x3a11cc9e	0.00055618014
82	0xbc24ec34	-0.010066081
83	0xbc97bf70	-0.018523902
84	0x3c912095	0.017715732
85	0x3b2be2e7	0.0026227774
86	0xbcbfd50f	-0.023417024
87	0x3d19fd9e	0.037595384
88	0xbc9350b7	-0.017982824
89	0xbb8fe91b	-0.004391802
90	0x3cab339c	0.020898633
91	0x3c878666	0.016543578
92	0x3c3b1846	0.011419361
93	0x3cdc4bac	0.026891552
94	0x3ccd8dba	0.025091995
95	0xbc8c2509	-0.017107503
96	0xbc2c3d8f	-0.010512724
97	0x3d0365ec	0.032079622
98	0x3d17f22f	0.0370962
99	0x3d1dc589	0.038518462
100	0xbc8f6e77	-0.017508728
101	0xbb46a048	-0.0030307937
102	0x3cd13521	0.02553803
103	0xbb19491e	-0.0023389529
104	0x3c8d6497	0.017259879
105	0xbb290e89	-0.0025796017
106	0xbbdec751	-0.0067986627
107	0xbcbf2347	-0.023332251
108	0x3cdac118	0.026703402
109	0xb98074da	-0.00024501124
110	0x3ccb5a19	0.024823235
111	0xbb9feae3	-0.0048802956
112	0xbc9f5e3e	-0.019454118
113	0xbc763bd1	-0.01502891
114	0x3c7949e8	0.0152153745
115	0xbc457f8f	-0.012054338
116	0xbc5f0486	-0.013611918
117	0x3c2bf94b	0.010496448
118	0x3c0027f9	0.00782203
119	0xbba570cc	-0.005048847
120	0xbc372fba	-0.0111808125
121	0x3c902a6c	0.017598353
122	0xbc9cd623	-0.019145077
123	0xbcc2dff1	-0.023788424
124	0xbc29e690	-0.010369912
125	0xbbf1e996	-0.007382582
126	0xbc92ef3e	-0.017936345
127	0x3ccc0ce6	0.024908494
128	0x3cf21c4b	0.029554507
129	0x3c1b7f57	0.009490809
130	0x3cf5e7eb	0.030017814
131	0x3ba40254	0.0050051603
132	0xbca5087a	-0.020145644
133	0x3d09f97a	0.033685185
134	0x3c70dd4b	0.014701198
135	0x3c622e76	0.013805022
136	0x3d132d85	0.035932083
137	0x3b90ed09	0.004422788
138	0x3ca562cb	0.02018871
139	0xba5c870c	-0.00084124575
140	0x3c8d32e2	0.017236177
141	0x3cf17c5b	0.029478243
142	0x3d20ccd7	0.03925785
143	0x3c725d23	0.014792713
144	0xbaf37a82	-0.0018575939
145	0xbb37d471	-0.002805021
146	0xbb86ca81	-0.004113496
147	0x3cb2a62f	0.021807758
148	0x3c90b072	0.01766226
149	0x3d25324e	0.040331177
150	0xbb864e31	-0.0040986766
151	0x3d2ecc5d	0.042675365
152	0x3d30ffc3	0.043212663
153	0x3d05e928	0.03269306
154	0x3d36b792	0.04460866
155	0xbb327518	-0.0027230438
156	0xbc22115b	-0.009891833
157	0x3b0746f8	0.0020641666
158	0x3d07099f	0.03296816
159	0x3cab09b7	0.020878656
160	0xbbeb156f	-0.007174186
161	0x3b66e5a2	0.0035232087
162	0x3d341a8a	0.043970622
163	0xbc563bc1	-0.01307577
164	0x3d029213	0.03187759
165	0xbca1a929	-0.019733982
166	0x3b6f1b1d	0.0036484667
167	0x3d04cf88	0.03242448
168	0x3d042ede	0.03227126
169	0xbc881e63	-0.016616052
170	0xbc7c0aeb	-0.015383462
171	0xbc97f4de	-0.018549379
172	0x3cfc7cad	0.030821169
173	0x3cadca66	0.021214675
174	0x3bfa97ee	0.007647506
175	0xbc3d0946	-0.0115378555
176	0xbaaec9d2	-0.0013335294
177	0xbd0ec78f	-0.034858283
178	0xbc080de2	-0.008304091
179	0x3cf1b0e9	0.029503303
180	0xbc83fe4d	-0.016112471
181	0x3d0e7e05	0.03478815
182	0xb9c5f825	-0.0003775965
183	0x3cfe4dac	0.031042896
184	0x3cde8d9e	0.027167138
185	0x3bec2447	0.007206473
186	0x3c05ed14	0.0081742
187	0x3d1b16c1	0.037863497
188	0xbc78f4d5	-0.015195091
189	0x3b90623a	0.004406241
190	0x39c2dfae	0.00037169218
191	0xbc07abc5	-0.008280699
192	0x3bcd5002	0.006265641
193	0xbc7bc4b5	-0.015366723
194	0xbc8b78a3	-0.017025298
195	0xbb032fdb	-0.0020017538
196	0xbbafbca2	-0.005363063
197	0xbb8d8bb0	-0.0043196306
198	0x3d018213	0.03161819
199	0x3b819394	0.0039543603
200	0x3d009e8a	0.031401195
201	0xbc85cc17	-0.01633267
202	0x3cd3be17	0.025847478
203	0xbade49d7	-0.0016959262
204	0xbc766168	-0.015037872
205	0xbc1fb093	-0.009746688
206	0x3d0dfd42	0.034665354
207	0x3c853492	0.016260419
208	0x3d05da4e	0.032678895
209	0xbcaa59e7	-0.020794822
210	0xbc1ae900	-0.009454966
211	0x3cf2be7c	0.029631846
212	0x3c2de485	0.010613565
213	0x3cffcaee	0.031224694
214	0xbbdc2897	-0.006718706
215	0x3b8187ec	0.0039529707
216	0x3cfe469a	0.031039525
217	0xbc4c4c2d	-0.012469334
218	0xbbe71bec	-0.007052889
219	0xba9d9ee6	-0.0012025505
220	0xbc85bbba	-0.016324867
221	0xbcbc28ff	-0.022968767
222	0x3cacaf68	0.021079734
223	0xbbb9c9d9	-0.005669814
224	0x3d087198	0.033311456
225	0xbc229d92	-0.009925263
226	0x3cdac7c9	0.026706593
227	0xbc971372	-0.01844189
228	0x3bc83450	0.0061097518
229	0x3c235be5	0.00997064
230	0xbc5a8a72	-0.013338672
231	0x3be54ccc	0.0069976803
232	0xbbb491ee	-0.0055105602
233	0x3c6608ff	0.014040231
234	0xbcb35b28	-0.021894053
235	0x3cad52f6	0.021157723
236	0xbcaa0c87	-0.020757927
237	0x3c0a0951	0.008425073
238	0x3d2697e7	0.04067221
239	0x3d1ad356	0.037799202
240	0xbcd61616	-0.026133578
241	0xbcf2c0af	-0.029632894
242	0x3b14300d	0.0022611648
243	0x3b8589b5	0.004075254
244	0x3c1a1729	0.009404936
245	0xbc1a9426	-0.009434735
246	0xbc9cecdf	-0.019155918
247	0x3c2119fe	0.009832857
248	0x3cb4c649	0.022067206
249	0x3b97480b	0.0046167425
250	0xbc061180	-0.008182883
251	0xbcb5040e	-0.02209666
252	0x3cc40bae	0.02393135
253	0x3a840206	0.0010071404
254	0x3ccf32b5	0.025292734
255	0x3ad5b89c	0.0016305628

block_4.1.weight f4 [32]
0	0x3f801eb9	1.0009376
1	0x3f798d12	0.9748088
2	0x3f7999c9	0.9750028
3	0x3f7e6bb0	0.9938307
4	0x3f7d4675	0.98935634
5	0x3f816a89	1.0110637
6	0x3f81688c	1.011003
7	0x3f80b9c6	1.0056694
8	0x3f81130f	1.0083941
9	0x3f7b2616	0.9810499
10	0x3f7b668f	0.98203367
11	0x3f7f15b3	0.99642485
12	0x3f810100	1.007843
13	0x3f7fc88a	0.99915373
14	0x3f7eb5e8	0.99496317
15	0x3f80e95b	1.0071214
16	0x3f7c1812	0.9847423
17	0x3f7a5159	0.97780377
18	0x3f81ad1a	1.0130951
19	0x3f7fb023	0.9987814
20	0x3f7b89cb	0.9825713
21	0x3f7f704b	0.9978072
22	0x3f7e4f5a	0.9933983
23	0x3f7ce676	0.98789155
24	0x3f7db641	0.9910622
25	0x3f816c52	1.0111182
26	0x3f833b78	1.0252523
27	0x3f7ce6c5	0.98789626
28	0x3f7c8b7c	0.98650336
29	0x3f806baf	1.0032862
30	0x3f818ff5	1.0122057
31	0x3f7be6fb	0.98399323

block_4.1.bias f4 [32]
0	0xbd25d48d	-0.040485907
1	0x3d2751d2	0.040849514
2	0xbd1132c8	-0.03544882
3	0xbd1b6a7a	-0.03794334
4	0xbcd5acd8	-0.026083395
5	0x3d1f717d	0.03892659
6	0xbd1daf96	-0.03849753
7	0x3d19d6eb	0.037558477
8	0x3d2bd5f4	0.04195209
9	0xbd2a6fa8	-0.04161039
10	0x3ca260e4	0.019821592
11	0x3d2aa1ad	0.041658092
12	0x3d2800f0	0.04101652
13	0x3d304bdf	0.043041106
14	0x3d2b5788	0.041831523
15	0xbd0ca50c	-0.03433709
16	0xbd2fe405	-0.042942066
17	0x3d151c25	0.036403794
18	0xbc8d6b5c	-0.017263107
19	0xbd1865d7	-0.037206497
20	0xbccbccae	-0.024877872
21	0xbd28c68c	-0.041204974
22	0xbc08911d	-0.008335379
23	0xbd2922e0	-0.041293025
24	0xbc614135	-0.013748457
25	0xbd27d033	-0.04097004
26	0x3d23a3bc	0.03995107
27	0xbd235b5e	-0.039882056
28	0x3c146cc0	0.009059131
29	0x3d26a002	0.04067994
30	0x3d03d2e9	0.03218356
31	0xbd1d7f87	-0.038451698

block_4.1.running_mean f4 [32]
0	0x3ea16472	0.31521946
1	0x3cb1fab4	0.02172599
2	0xbb6a9611	-0.0035795013
3	0x3e6de210	0.23230767
4	0xbdf4f30a	-0.119604185
5	0xbe3f8a85	-0.18705185
6	0x3e94a971	0.29035524
7	0xbdbb8aac	-0.09157309
8	0xbe913a9c	-0.28365028
9	0x3e797a83	0.24363141
10	0x3e664ea3	0.22490935
11	0xbe13c58a	-0.14430824
12	0xbe8eedd1	-0.27915815
13	0xbe1469c7	-0.14493476
14	0xbe38d736	-0.18050846
15	0x3deb0ef6	0.11477463
16	0x3e977916	0.2958457
17	0x3da39e39	0.07989163
18	0x3d0b32fa	0.033984162
19	0x3e8d7d49	0.27634647
20	0x3e3ab4fa	0.182331
21	0x3e8bcd65	0.2730514
22	0x3e40c49f	0.18825005
23	0x3e87857d	0.2646903
24	0xbe65db99	-0.22447051
25	0x3ea50985	0.32233825
26	0xbe766a9d	-0.24064107
27	0x3dde9a68	0.108692944
28	0xbe011c47	-0.12608443
29	0xbe2d7f3b	-0.16943066
30	0xbe90d26c	-0.2828554
31	0xbe090fdc	-0.13384956

block_4.1.running_var f4 [32]
0	0x3feac587	1.834153
1	0x3ea9dc34	0.33175814
2	0x3ea6a26f	0.32545802
3	0x3f708a28	0.9396081
4	0x3f2fc205	0.68655425
5	0x3fa1cfda	1.2641556
6	0x3f958f7f	1.1684417
7	0x3f646542	0.8921701
8	0x3fe18832	1.7619689
9	0x3f83b211	1.0288717
10	0x3f880422	1.0626261
11	0x3f505ab6	0.81388414
12	0x3fa8834c	1.3165069
13	0x3f4cab77	0.79949135
14	0x3f63ea83	0.8902971
15	0x3f6d0c7a	0.9259716
16	0x3fb77871	1.4333631
17	0x3ed1849b	0.40921482
18	0x3f58d40b	0.8469855
19	0x3fd7afea	1.685056
20	0x3f86b815	1.0524927
21	0x3f97179d	1.1804081
22	0x3f759c80	0.95941925
23	0x3fb3de65	1.4052244
24	0x3f83c32f	1.029394
25	0x3fc7dd0f	1.5614337
26	0x3fb2e7df	1.3977011
27	0x3f723af2	0.94621193
28	0x3f320975	0.6954568
29	0x3faad398	1.3345823
30	0x3ff992e3	1.9497951
31	0x3efb7c10	0.4911809

block_5.0.weight f4 [8, 32, 1, 16]
0	0x3c6b6b7b	0.014368887
1	0xbcb280d3	-0.021789944
2	0x3d081532	0.03322334
3	0xbc0e8769	-0.0086992765
4	0xbc9f3ca4	-0.019438095
5	0xbbce6baf	-0.006299458
6	0x3d1aa4bf	0.03775477
7	0xbd555f8a	-0.052093066
8	0x3cec79d8	0.028866693
9	0x3d25a7cd	0.04044323
10	0x3c45b99d	0.012068179
11	0xbd1a174b	-0.03761987
12	0x3c026865	0.00795946
13	0xbd090cd1	-0.03345949
14	0xbd56b939	-0.052422736
15	0xbc69f0c5	-0.014278595
16	0x3c0c0f44	0.0085485615
17	0xbc65c575	-0.014024128
18	0xbc3d3326	-0.011547839
19	0x3cd93204	0.026513107
20	0xbcde19e5	-0.027111957
21	0x3bf5a7c6	0.007496807
22	0xbc9f41fc	-0.019440643
23	0x3d1bd4ea	0.038044848
24	0xbc309538	-0.010777764
25	0xbd225cee	-0.039639406
26	0x3c1f1d1e	0.009711532
27	0x3d2fdc8f	0.04293495
28	0x3c88066f	0.01660463
29	0xbaa99f26	-0.0012941107
30	0xbc6ba56b	-0.0143827
31	0x3d24fd91	0.040280882
32	0xbc9694aa	-0.018381435
33	0x3c97ca7a	0.018529166
34	0xbb3add08	-0.0028513093
35	0xbb6fc54e	-0.0036586109
36	0xbcae755d	-0.021296198
37	0x3cfd9747	0.030955924
38	0x3b1c968a	0.002389344
39	0xbc986280	-0.018601656
40	0x3c42f075	0.01189815
41	0xbb45f5b0	-0.0030206256
42	0x3b620b85	0.003449173
43	0x3cae3bdc	0.021268778
44	0xbc8ce1c7	-0.017197503
45	0x3d0d434f	0.03448802
46	0x3d400aa3	0.046885144
47	0xbd313bee	-0.043270044
48	0x3ca3fecd	0.02001896
49	0x3d2af0c7	0.04173353
50	0x3c64f3f8	0.013974182
51	0xbc766260	-0.015038103
52	0xbcb54fe1	-0.022132816
53	0xbc881a8c	-0.016614221
54	0x3cb96353	0.02263037
55	0xbcec8cf6	-0.02887581
56	0xbc83192f	-0.01600322
57	0xbccd389d	-0.02505141
58	0x3ceda5af	0.029009668
59	0x3cb9c24c	0.022675656
60	0xbcc80c33	-0.02441988
61	0x3d1fcbaa	0.03901259
62	0xbca7d917	-0.020489259
63	0xbd29f41e	-0.041492574
64	0x3d1847a8	0.03717771
65	0xbc9480c2	-0.018127803
66	0xbcfb0291	-0.030640872
67	0x3cf44006	0.029815685
68	0xbcb930c9	-0.02260627
69	0x3caf79e7	0.021420432
70	0x3c2c810c	0.010528814
71	0xbd10f53a	-0.035390116
72	0x3b033b72	0.0020024446
73	0xbc429071	-0.011875258
74	0xbcdedb36	-0.027204137
75	0x3c99cbf5	0.018774012
76	0xbd5c1e29	-0.0537397
77	0x3caf3eb1	0.021392198
78	0xbca113b2	-0.019662712
79	0x3bce938d	0.0063042105
80	0x3c63d20d	0.0139050605
81	0x3d45c87a	0.048286892
82	0x3d078be6	0.033092402
83	0xbca5cf38	-0.020240411
84	0x3b041738	0.002015544
85	0x3d38d888	0.045128375
86	0xbcd21590	-0.025645047
87	0x3be92cf2	0.0071159536
88	0x39232ae8	0.00015560875
89	0xbd59093a	-0.052987315
90	0xbd807286	-0.062718436
91	0xbcecba91	-0.028897556
92	0x3b9ab393	0.004721114
93	0x3c273751	0.01020606
94	0xbab4a0ec	-0.0013780869
95	0x3a8ca732	0.001073098
96	0x3b7573bb	0.0037453014
97	0xbc0aab1c	-0.008463647
98	0x3d4520dd	0.048127044
99	0xbca615cb	-0.020274064
100	0xbd0c7c94	-0.034298494
101	0x3d18e8f2	0.03733153
102	0x3d660ebd	0.0561664
103	0xbcb99fba	-0.022659171
104	0x3c4ea25b	0.012611951
105	0x3c5ca591	0.0134672085
106	0x3c858205	0.01629735
107	0x3d2c1fbb	0.042022448
108	0x3b83b594	0.0040194485
109	0xbd2e7604	-0.042593017
110	0xbd3b0a43	-0.045664083
111	0xbd3333a9	-0.04375044
112	0xbd1da9ff	-0.0384922
113	0xbd00f8f8	-0.031487435
114	0xbd11e9fd	-0.03562354
115	0xbba388f6	-0.0049906923
116	0x3a94b344	0.0011344929
117	0xbced6823	-0.02898032
118	0xbd4eeece	-0.05052071
119	0xbc6dd580	-0.014516234
120	0x3d05f79f	0.032706853
121	0x3cab2923	0.020893639
122	0xbb80282c	-0.003911039
123	0xbba975c9	-0.005171512
124	0xbc876f0f	-0.016532449
125	0x3cba41ba	0.022736419
126	0xbcee9a7d	-0.0291264
127	0x3b83d153	0.004022756
128	0x3c834b40	0.016027093
129	0xbd591930	-0.053002536
130	0xbccc724d	-0.024956847
131	0x3d2bce02	0.04194451
132	0xbd01570c	-0.031577155
133	0xbd288034	-0.04113789
134	0xbb974422	-0.0046162764
135	0x3c40d0fd	0.011768577
136	0x3c8fdd6c	0.017561637
137	0x3c4b2974	0.01240002
138	0x3ce3c97f	0.027806042
139	0xbc9b5dc2	-0.018965606
140	0xbce9b96c	-0.028530799
141	0xbd17e08a	-0.03707937
142	0xbbfd092c	-0.0077220406
143	0x3d4c9995	0.049951155
144	0xbd0b9881	-0.034080986
145	0x3c3234bb	0.01087683
146	0xbc9fb0b9	-0.019493448
147	0x3cd38552	0.025820408
148	0x3ca7b7b5	0.02047334
149	0x3d039f33	0.032134246
150	0xbc7c369e	-0.015393881
151	0x3d17b93b	0.037041884
152	0xbc8ceff6	-0.017204266
153	0x3c8f219c	0.01747208
154	0x3c9b3bee	0.018949475
155	0x3b5ed401	0.0034000876
156	0xbd0b909b	-0.034073453
157	0x3cdf4c3c	0.027258031
158	0xbc5ce7ed	-0.01348303
159	0xbd514f7e	-0.0511012
160	0x3cf8a69d	0.030352885
161	0xbc79dbce	-0.015250159
162	0xbd058b12	-0.03260333
163	0xbd513ac6	-0.05108144
164	0x3c345806	0.011007315
165	0x3cd6f0df	0.026237903
166	0x3c213ce6	0.0098411795
167	0xbc95c962	-0.018284503
168	0x3babe621	0.0052459394
169	0x3be04c82	0.006845058
170	0xbc8f1cf9	-0.01746987
171	0x3d10caa1	0.035349492
172	0x3c2e7b14	0.010649461
173	0xbd5eb48c	-0.0543714
174	0xbb5cbe59	-0.0033682792
175	0xbbfa3946	-0.007636222
176	0xbcca3f54	-0.0246884
177	0xbc2c26ec	-0.010507327
178	0xbc96d54c	-0.018412255
179	0xbcca06fd	-0.024661535
180	0xbce070ce	-0.02739754
181	0xbd0cadfe	-0.03434562
182	0xbd1eda98	-0.038782686
183	0x3d05a001	0.032623295
184	0xba8e2122	-0.0010843615
185	0xbcc3fb61	-0.023923578
186	0xbc311349	-0.010807821
187	0x3ba32bad	0.004979572
188	0xbd400310	-0.04687792
189	0x3c77847e	0.015107272
190	0x3c9e6403	0.019334799
191	0xbc72f660	-0.014829248
192	0xbce1ff5f	-0.02758759
193	0xbd1b28d5	-0.037880737
194	0x3c93ad26	0.0180269
195	0xbc9062cf	-0.01762524
196	0xbcde974d	-0.027171755
197	0xbca3781a	-0.01995473
198	0x3acd52e6	0.0015664964
199	0xbd0453ff	-0.032306667
200	0xbbfe8c98	-0.007768225
201	0x3c958c29	0.01825531
202	0xbc9add2d	-0.018904293
203	0x3ce77df9	0.02825831
204	0xbcdac4e1	-0.026705207
205	0x3d35aee2	0.044356234
206	0x3c9ec26f	0.019379823
207	0x3c89cd0a	0.016821403
208	0x3cc4c387	0.024019016
209	0xbb08fd98	-0.0020903107
210	0xbc15d525	-0.009145056
211	0xbd0a9cc9	-0.03384093
212	0xbd3246dc	-0.043524608
213	0xbc7f0fdd	-0.015567747
214	0x3c8200ca	0.015869517
215	0x3bb8fa4a	0.005645071
216	0xbc16c22a	-0.009201566
217	0xbc0ec75f	-0.008714526
218	0x3c1086ee	0.008821232
219	0x3be54d9f	0.0069977785
220	0x3cb6b16e	0.022301402
221	0xbd1f22f4	-0.038851693
222	0x3d096356	0.033542
223	0xbca24283	-0.019807106
224	0x3d3ec1ab	0.046571415
225	0x3d2387c7	0.03992441
226	0x3d3c6653	0.04599602
227	0x3c3bd2a4	0.011463795
228	0x39a20d4b	0.00030908952
229	0xbd37cbd9	-0.04487214
230	0xbc4cd192	-0.012501137
231	0xbd19cdc5	-0.037549753
232	0xbd03950f	-0.032124575
233	0x3bbef7e8	0.0058278926
234	0xbd31bac6	-0.04339101
235	0xbd0c2480	-0.034214497
236	0x3cb78423	0.022401875
237	0x3d17b617	0.03703889
238	0xbc2904ba	-0.010316068
239	0xbbe95883	-0.007121147
240	0x3c99c485	0.018770466
241	0xbc0e6f4e	-0.008693529
242	0x3d041dcb	0.032254975
243	0xbc9e249c	-0.019304566
244	0xbd028d0c	-0.031872794
245	0xbc7c21bf	-0.015388905
246	0xbcbbf2e4	-0.022942968
247	0xbd2dc809	-0.042427097
248	0xbd04557b	-0.032308083
249	0xbc9073bb	-0.01763331
250	0xbd24aa6d	-0.040201593
251	0xbcbe4b72	-0.023229335
252	0xbcce643a	-0.025194276
253	0x3d159ee4	0.036528483
254	0xbce416bb	-0.02784287
255	0xbba64915	-0.00507463

block_5.1.weight f4 [8]
0	0x3f804f49	1.0024196
1	0x3f830e9c	1.0238833
2	0x3f852f7a	1.0405114
3	0x3f85043b	1.0391916
4	0x3f827881	1.0193025
5	0x3f80c74b	1.0060819
6	0x3f855707	1.0417184
7	0x3f85758d	1.0426499

block_5.1.bias f4 [8]
0	0xbcfdb778	-0.030971274
1	0x3bc6fca8	0.0060725994
2	0x3d1f3896	0.038872324
3	0x3d26377d	0.04058026
4	0xbcec7383	-0.028863674
5	0xbcca81dc	-0.024720125
6	0x3d2569c1	0.040384058
7	0x3d2fed00	0.04295063

block_5.1.running_mean f4 [8]
0	0xbda9b5f7	-0.0828666
1	0xbcd4a8f6	-0.025959473
2	0x3d4b996e	0.04970687
3	0xbc152f01	-0.009105445
4	0xbda5709a	-0.08078118
5	0xbd13d26b	-0.036089342
6	0xbdc9b00e	-0.09848033
7	0x3d61f695	0.0551668

block_5.1.running_var f4 [8]
0	0x3eb9f935	0.36322942
1	0x3e9576c4	0.29192173
2	0x3f0fed9d	0.56221944
3	0x3ef3b72a	0.4760068
4	0x3ee4c774	0.4468342
5	0x3eb6674f	0.35625693
6	0x3ea2aac1	0.317709
7	0x3ef9c448	0.48782563
